node {
  name: "global_step/initial_value"
  op: "Const"
  attr {
    key: "_output_shapes"
    value {
      list {
        shape {
        }
      }
    }
  }
  attr {
    key: "dtype"
    value {
      type: DT_INT32
    }
  }
  attr {
    key: "value"
    value {
      tensor {
        dtype: DT_INT32
        tensor_shape {
        }
        int_val: 0
      }
    }
  }
}
node {
  name: "global_step"
  op: "VariableV2"
  attr {
    key: "_output_shapes"
    value {
      list {
        shape {
        }
      }
    }
  }
  attr {
    key: "container"
    value {
      s: ""
    }
  }
  attr {
    key: "dtype"
    value {
      type: DT_INT32
    }
  }
  attr {
    key: "shape"
    value {
      shape {
      }
    }
  }
  attr {
    key: "shared_name"
    value {
      s: ""
    }
  }
}
node {
  name: "global_step/Assign"
  op: "Assign"
  input: "global_step"
  input: "global_step/initial_value"
  attr {
    key: "T"
    value {
      type: DT_INT32
    }
  }
  attr {
    key: "_class"
    value {
      list {
        s: "loc:@global_step"
      }
    }
  }
  attr {
    key: "_output_shapes"
    value {
      list {
        shape {
        }
      }
    }
  }
  attr {
    key: "use_locking"
    value {
      b: true
    }
  }
  attr {
    key: "validate_shape"
    value {
      b: true
    }
  }
}
node {
  name: "global_step/read"
  op: "Identity"
  input: "global_step"
  attr {
    key: "T"
    value {
      type: DT_INT32
    }
  }
  attr {
    key: "_class"
    value {
      list {
        s: "loc:@global_step"
      }
    }
  }
  attr {
    key: "_output_shapes"
    value {
      list {
        shape {
        }
      }
    }
  }
}
node {
  name: "mul/y"
  op: "Const"
  attr {
    key: "_output_shapes"
    value {
      list {
        shape {
        }
      }
    }
  }
  attr {
    key: "dtype"
    value {
      type: DT_INT32
    }
  }
  attr {
    key: "value"
    value {
      tensor {
        dtype: DT_INT32
        tensor_shape {
        }
        int_val: 1024
      }
    }
  }
}
node {
  name: "mul"
  op: "Mul"
  input: "global_step/read"
  input: "mul/y"
  attr {
    key: "T"
    value {
      type: DT_INT32
    }
  }
  attr {
    key: "_output_shapes"
    value {
      list {
        shape {
        }
      }
    }
  }
}
node {
  name: "mul_1/y"
  op: "Const"
  attr {
    key: "_output_shapes"
    value {
      list {
        shape {
        }
      }
    }
  }
  attr {
    key: "dtype"
    value {
      type: DT_INT32
    }
  }
  attr {
    key: "value"
    value {
      tensor {
        dtype: DT_INT32
        tensor_shape {
        }
        int_val: 1
      }
    }
  }
}
node {
  name: "mul_1"
  op: "Mul"
  input: "mul"
  input: "mul_1/y"
  attr {
    key: "T"
    value {
      type: DT_INT32
    }
  }
  attr {
    key: "_output_shapes"
    value {
      list {
        shape {
        }
      }
    }
  }
}
node {
  name: "ExponentialDecay/initial_learning_rate"
  op: "Const"
  attr {
    key: "_output_shapes"
    value {
      list {
        shape {
        }
      }
    }
  }
  attr {
    key: "dtype"
    value {
      type: DT_FLOAT
    }
  }
  attr {
    key: "value"
    value {
      tensor {
        dtype: DT_FLOAT
        tensor_shape {
        }
        float_val: 0.009999999776482582
      }
    }
  }
}
node {
  name: "ExponentialDecay/Cast/x"
  op: "Const"
  attr {
    key: "_output_shapes"
    value {
      list {
        shape {
        }
      }
    }
  }
  attr {
    key: "dtype"
    value {
      type: DT_FLOAT
    }
  }
  attr {
    key: "value"
    value {
      tensor {
        dtype: DT_FLOAT
        tensor_shape {
        }
        float_val: 4000000.0
      }
    }
  }
}
node {
  name: "ExponentialDecay/Cast_1/x"
  op: "Const"
  attr {
    key: "_output_shapes"
    value {
      list {
        shape {
        }
      }
    }
  }
  attr {
    key: "dtype"
    value {
      type: DT_FLOAT
    }
  }
  attr {
    key: "value"
    value {
      tensor {
        dtype: DT_FLOAT
        tensor_shape {
        }
        float_val: 0.949999988079071
      }
    }
  }
}
node {
  name: "ExponentialDecay/Cast_2"
  op: "Cast"
  input: "mul_1"
  attr {
    key: "DstT"
    value {
      type: DT_FLOAT
    }
  }
  attr {
    key: "SrcT"
    value {
      type: DT_INT32
    }
  }
  attr {
    key: "Truncate"
    value {
      b: false
    }
  }
  attr {
    key: "_output_shapes"
    value {
      list {
        shape {
        }
      }
    }
  }
}
node {
  name: "ExponentialDecay/truediv"
  op: "RealDiv"
  input: "ExponentialDecay/Cast_2"
  input: "ExponentialDecay/Cast/x"
  attr {
    key: "T"
    value {
      type: DT_FLOAT
    }
  }
  attr {
    key: "_output_shapes"
    value {
      list {
        shape {
        }
      }
    }
  }
}
node {
  name: "ExponentialDecay/Floor"
  op: "Floor"
  input: "ExponentialDecay/truediv"
  attr {
    key: "T"
    value {
      type: DT_FLOAT
    }
  }
  attr {
    key: "_output_shapes"
    value {
      list {
        shape {
        }
      }
    }
  }
}
node {
  name: "ExponentialDecay/Pow"
  op: "Pow"
  input: "ExponentialDecay/Cast_1/x"
  input: "ExponentialDecay/Floor"
  attr {
    key: "T"
    value {
      type: DT_FLOAT
    }
  }
  attr {
    key: "_output_shapes"
    value {
      list {
        shape {
        }
      }
    }
  }
}
node {
  name: "ExponentialDecay"
  op: "Mul"
  input: "ExponentialDecay/initial_learning_rate"
  input: "ExponentialDecay/Pow"
  attr {
    key: "T"
    value {
      type: DT_FLOAT
    }
  }
  attr {
    key: "_output_shapes"
    value {
      list {
        shape {
        }
      }
    }
  }
}
node {
  name: "learning_rate/tags"
  op: "Const"
  attr {
    key: "_output_shapes"
    value {
      list {
        shape {
        }
      }
    }
  }
  attr {
    key: "dtype"
    value {
      type: DT_STRING
    }
  }
  attr {
    key: "value"
    value {
      tensor {
        dtype: DT_STRING
        tensor_shape {
        }
        string_val: "learning_rate"
      }
    }
  }
}
node {
  name: "learning_rate"
  op: "ScalarSummary"
  input: "learning_rate/tags"
  input: "ExponentialDecay"
  attr {
    key: "T"
    value {
      type: DT_FLOAT
    }
  }
  attr {
    key: "_output_shapes"
    value {
      list {
        shape {
        }
      }
    }
  }
}
node {
  name: "train_input/input_producer/Const"
  op: "Const"
  attr {
    key: "_output_shapes"
    value {
      list {
        shape {
          dim {
            size: 1444
          }
        }
      }
    }
  }
  attr {
    key: "dtype"
    value {
      type: DT_STRING
    }
  }
  attr {
    key: "value"
    value {
      tensor {
        dtype: DT_STRING
        tensor_shape {
          dim {
            size: 1444
          }
        }
        string_val: "/home/ubuntu/EE542_final_project/audioset_v1_embeddings/unbal_train/ft.tfrecord"
        string_val: "/home/ubuntu/EE542_final_project/audioset_v1_embeddings/unbal_train/k4.tfrecord"
        string_val: "/home/ubuntu/EE542_final_project/audioset_v1_embeddings/unbal_train/_a.tfrecord"
        string_val: "/home/ubuntu/EE542_final_project/audioset_v1_embeddings/unbal_train/8N.tfrecord"
        string_val: "/home/ubuntu/EE542_final_project/audioset_v1_embeddings/unbal_train/d5.tfrecord"
        string_val: "/home/ubuntu/EE542_final_project/audioset_v1_embeddings/unbal_train/bk.tfrecord"
        string_val: "/home/ubuntu/EE542_final_project/audioset_v1_embeddings/unbal_train/VC.tfrecord"
        string_val: "/home/ubuntu/EE542_final_project/audioset_v1_embeddings/unbal_train/Ey.tfrecord"
        string_val: "/home/ubuntu/EE542_final_project/audioset_v1_embeddings/unbal_train/A6.tfrecord"
        string_val: "/home/ubuntu/EE542_final_project/audioset_v1_embeddings/unbal_train/T-.tfrecord"
        string_val: "/home/ubuntu/EE542_final_project/audioset_v1_embeddings/unbal_train/8I.tfrecord"
        string_val: "/home/ubuntu/EE542_final_project/audioset_v1_embeddings/unbal_train/5-.tfrecord"
        string_val: "/home/ubuntu/EE542_final_project/audioset_v1_embeddings/unbal_train/RA.tfrecord"
        string_val: "/home/ubuntu/EE542_final_project/audioset_v1_embeddings/unbal_train/X_.tfrecord"
        string_val: "/home/ubuntu/EE542_final_project/audioset_v1_embeddings/unbal_train/gY.tfrecord"
        string_val: "/home/ubuntu/EE542_final_project/audioset_v1_embeddings/unbal_train/1q.tfrecord"
        string_val: "/home/ubuntu/EE542_final_project/audioset_v1_embeddings/unbal_train/2u.tfrecord"
        string_val: "/home/ubuntu/EE542_final_project/audioset_v1_embeddings/unbal_train/ZF.tfrecord"
        string_val: "/home/ubuntu/EE542_final_project/audioset_v1_embeddings/unbal_train/lH.tfrecord"
        string_val: "/home/ubuntu/EE542_final_project/audioset_v1_embeddings/unbal_train/J4.tfrecord"
        string_val: "/home/ubuntu/EE542_final_project/audioset_v1_embeddings/unbal_train/56.tfrecord"
        string_val: "/home/ubuntu/EE542_final_project/audioset_v1_embeddings/unbal_train/vx.tfrecord"
        string_val: "/home/ubuntu/EE542_final_project/audioset_v1_embeddings/unbal_train/_9.tfrecord"
        string_val: "/home/ubuntu/EE542_final_project/audioset_v1_embeddings/unbal_train/1E.tfrecord"
        string_val: "/home/ubuntu/EE542_final_project/audioset_v1_embeddings/unbal_train/wv.tfrecord"
        string_val: "/home/ubuntu/EE542_final_project/audioset_v1_embeddings/unbal_train/R9.tfrecord"
        string_val: "/home/ubuntu/EE542_final_project/audioset_v1_embeddings/unbal_train/dq.tfrecord"
        string_val: "/home/ubuntu/EE542_final_project/audioset_v1_embeddings/unbal_train/J2.tfrecord"
        string_val: "/home/ubuntu/EE542_final_project/audioset_v1_embeddings/unbal_train/10.tfrecord"
        string_val: "/home/ubuntu/EE542_final_project/audioset_v1_embeddings/unbal_train/G4.tfrecord"
        string_val: "/home/ubuntu/EE542_final_project/audioset_v1_embeddings/unbal_train/36.tfrecord"
        string_val: "/home/ubuntu/EE542_final_project/audioset_v1_embeddings/unbal_train/J-.tfrecord"
        string_val: "/home/ubuntu/EE542_final_project/audioset_v1_embeddings/unbal_train/59.tfrecord"
        string_val: "/home/ubuntu/EE542_final_project/audioset_v1_embeddings/unbal_train/-k.tfrecord"
        string_val: "/home/ubuntu/EE542_final_project/audioset_v1_embeddings/unbal_train/g_.tfrecord"
        string_val: "/home/ubuntu/EE542_final_project/audioset_v1_embeddings/unbal_train/U8.tfrecord"
        string_val: "/home/ubuntu/EE542_final_project/audioset_v1_embeddings/unbal_train/S4.tfrecord"
        string_val: "/home/ubuntu/EE542_final_project/audioset_v1_embeddings/unbal_train/S8.tfrecord"
        string_val: "/home/ubuntu/EE542_final_project/audioset_v1_embeddings/unbal_train/r5.tfrecord"
        string_val: "/home/ubuntu/EE542_final_project/audioset_v1_embeddings/unbal_train/bf.tfrecord"
        string_val: "/home/ubuntu/EE542_final_project/audioset_v1_embeddings/unbal_train/0I.tfrecord"
        string_val: "/home/ubuntu/EE542_final_project/audioset_v1_embeddings/unbal_train/FC.tfrecord"
        string_val: "/home/ubuntu/EE542_final_project/audioset_v1_embeddings/unbal_train/U5.tfrecord"
        string_val: "/home/ubuntu/EE542_final_project/audioset_v1_embeddings/unbal_train/jL.tfrecord"
        string_val: "/home/ubuntu/EE542_final_project/audioset_v1_embeddings/unbal_train/83.tfrecord"
        string_val: "/home/ubuntu/EE542_final_project/audioset_v1_embeddings/unbal_train/QV.tfrecord"
        string_val: "/home/ubuntu/EE542_final_project/audioset_v1_embeddings/unbal_train/px.tfrecord"
        string_val: "/home/ubuntu/EE542_final_project/audioset_v1_embeddings/unbal_train/T8.tfrecord"
        string_val: "/home/ubuntu/EE542_final_project/audioset_v1_embeddings/unbal_train/t_.tfrecord"
        string_val: "/home/ubuntu/EE542_final_project/audioset_v1_embeddings/unbal_train/9L.tfrecord"
        string_val: "/home/ubuntu/EE542_final_project/audioset_v1_embeddings/unbal_train/Cb.tfrecord"
        string_val: "/home/ubuntu/EE542_final_project/audioset_v1_embeddings/unbal_train/DX.tfrecord"
        string_val: "/home/ubuntu/EE542_final_project/audioset_v1_embeddings/unbal_train/L_.tfrecord"
        string_val: "/home/ubuntu/EE542_final_project/audioset_v1_embeddings/unbal_train/33.tfrecord"
        string_val: "/home/ubuntu/EE542_final_project/audioset_v1_embeddings/unbal_train/ka.tfrecord"
        string_val: "/home/ubuntu/EE542_final_project/audioset_v1_embeddings/unbal_train/kZ.tfrecord"
        string_val: "/home/ubuntu/EE542_final_project/audioset_v1_embeddings/unbal_train/_S.tfrecord"
        string_val: "/home/ubuntu/EE542_final_project/audioset_v1_embeddings/unbal_train/R_.tfrecord"
        string_val: "/home/ubuntu/EE542_final_project/audioset_v1_embeddings/unbal_train/XE.tfrecord"
        string_val: "/home/ubuntu/EE542_final_project/audioset_v1_embeddings/unbal_train/A3.tfrecord"
        string_val: "/home/ubuntu/EE542_final_project/audioset_v1_embeddings/unbal_train/M5.tfrecord"
        string_val: "/home/ubuntu/EE542_final_project/audioset_v1_embeddings/unbal_train/-_.tfrecord"
        string_val: "/home/ubuntu/EE542_final_project/audioset_v1_embeddings/unbal_train/W2.tfrecord"
        string_val: "/home/ubuntu/EE542_final_project/audioset_v1_embeddings/unbal_train/RW.tfrecord"
        string_val: "/home/ubuntu/EE542_final_project/audioset_v1_embeddings/unbal_train/2d.tfrecord"
        string_val: "/home/ubuntu/EE542_final_project/audioset_v1_embeddings/unbal_train/td.tfrecord"
        string_val: "/home/ubuntu/EE542_final_project/audioset_v1_embeddings/unbal_train/_O.tfrecord"
        string_val: "/home/ubuntu/EE542_final_project/audioset_v1_embeddings/unbal_train/4a.tfrecord"
        string_val: "/home/ubuntu/EE542_final_project/audioset_v1_embeddings/unbal_train/OX.tfrecord"
        string_val: "/home/ubuntu/EE542_final_project/audioset_v1_embeddings/unbal_train/tL.tfrecord"
        string_val: "/home/ubuntu/EE542_final_project/audioset_v1_embeddings/unbal_train/NR.tfrecord"
        string_val: "/home/ubuntu/EE542_final_project/audioset_v1_embeddings/unbal_train/i3.tfrecord"
        string_val: "/home/ubuntu/EE542_final_project/audioset_v1_embeddings/unbal_train/9D.tfrecord"
        string_val: "/home/ubuntu/EE542_final_project/audioset_v1_embeddings/unbal_train/1S.tfrecord"
        string_val: "/home/ubuntu/EE542_final_project/audioset_v1_embeddings/unbal_train/D7.tfrecord"
        string_val: "/home/ubuntu/EE542_final_project/audioset_v1_embeddings/unbal_train/qP.tfrecord"
        string_val: "/home/ubuntu/EE542_final_project/audioset_v1_embeddings/unbal_train/Wi.tfrecord"
        string_val: "/home/ubuntu/EE542_final_project/audioset_v1_embeddings/unbal_train/H8.tfrecord"
        string_val: "/home/ubuntu/EE542_final_project/audioset_v1_embeddings/unbal_train/E8.tfrecord"
        string_val: "/home/ubuntu/EE542_final_project/audioset_v1_embeddings/unbal_train/oN.tfrecord"
        string_val: "/home/ubuntu/EE542_final_project/audioset_v1_embeddings/unbal_train/ir.tfrecord"
        string_val: "/home/ubuntu/EE542_final_project/audioset_v1_embeddings/unbal_train/_7.tfrecord"
        string_val: "/home/ubuntu/EE542_final_project/audioset_v1_embeddings/unbal_train/aF.tfrecord"
        string_val: "/home/ubuntu/EE542_final_project/audioset_v1_embeddings/unbal_train/yS.tfrecord"
        string_val: "/home/ubuntu/EE542_final_project/audioset_v1_embeddings/unbal_train/RQ.tfrecord"
        string_val: "/home/ubuntu/EE542_final_project/audioset_v1_embeddings/unbal_train/AB.tfrecord"
        string_val: "/home/ubuntu/EE542_final_project/audioset_v1_embeddings/unbal_train/J1.tfrecord"
        string_val: "/home/ubuntu/EE542_final_project/audioset_v1_embeddings/unbal_train/ao.tfrecord"
        string_val: "/home/ubuntu/EE542_final_project/audioset_v1_embeddings/unbal_train/Z_.tfrecord"
        string_val: "/home/ubuntu/EE542_final_project/audioset_v1_embeddings/unbal_train/Ld.tfrecord"
        string_val: "/home/ubuntu/EE542_final_project/audioset_v1_embeddings/unbal_train/nF.tfrecord"
        string_val: "/home/ubuntu/EE542_final_project/audioset_v1_embeddings/unbal_train/88.tfrecord"
        string_val: "/home/ubuntu/EE542_final_project/audioset_v1_embeddings/unbal_train/sa.tfrecord"
        string_val: "/home/ubuntu/EE542_final_project/audioset_v1_embeddings/unbal_train/lx.tfrecord"
        string_val: "/home/ubuntu/EE542_final_project/audioset_v1_embeddings/unbal_train/sR.tfrecord"
        string_val: "/home/ubuntu/EE542_final_project/audioset_v1_embeddings/unbal_train/-L.tfrecord"
        string_val: "/home/ubuntu/EE542_final_project/audioset_v1_embeddings/unbal_train/kM.tfrecord"
        string_val: "/home/ubuntu/EE542_final_project/audioset_v1_embeddings/unbal_train/PP.tfrecord"
        string_val: "/home/ubuntu/EE542_final_project/audioset_v1_embeddings/unbal_train/rL.tfrecord"
        string_val: "/home/ubuntu/EE542_final_project/audioset_v1_embeddings/unbal_train/_1.tfrecord"
        string_val: "/home/ubuntu/EE542_final_project/audioset_v1_embeddings/unbal_train/zT.tfrecord"
        string_val: "/home/ubuntu/EE542_final_project/audioset_v1_embeddings/unbal_train/S0.tfrecord"
        string_val: "/home/ubuntu/EE542_final_project/audioset_v1_embeddings/unbal_train/-Y.tfrecord"
        string_val: "/home/ubuntu/EE542_final_project/audioset_v1_embeddings/unbal_train/HD.tfrecord"
        string_val: "/home/ubuntu/EE542_final_project/audioset_v1_embeddings/unbal_train/5L.tfrecord"
        string_val: "/home/ubuntu/EE542_final_project/audioset_v1_embeddings/unbal_train/nC.tfrecord"
        string_val: "/home/ubuntu/EE542_final_project/audioset_v1_embeddings/unbal_train/bg.tfrecord"
        string_val: "/home/ubuntu/EE542_final_project/audioset_v1_embeddings/unbal_train/3O.tfrecord"
        string_val: "/home/ubuntu/EE542_final_project/audioset_v1_embeddings/unbal_train/5q.tfrecord"
        string_val: "/home/ubuntu/EE542_final_project/audioset_v1_embeddings/unbal_train/eO.tfrecord"
        string_val: "/home/ubuntu/EE542_final_project/audioset_v1_embeddings/unbal_train/Pg.tfrecord"
        string_val: "/home/ubuntu/EE542_final_project/audioset_v1_embeddings/unbal_train/4-.tfrecord"
        string_val: "/home/ubuntu/EE542_final_project/audioset_v1_embeddings/unbal_train/79.tfrecord"
        string_val: "/home/ubuntu/EE542_final_project/audioset_v1_embeddings/unbal_train/uw.tfrecord"
        string_val: "/home/ubuntu/EE542_final_project/audioset_v1_embeddings/unbal_train/gt.tfrecord"
        string_val: "/home/ubuntu/EE542_final_project/audioset_v1_embeddings/unbal_train/UH.tfrecord"
        string_val: "/home/ubuntu/EE542_final_project/audioset_v1_embeddings/unbal_train/W0.tfrecord"
        string_val: "/home/ubuntu/EE542_final_project/audioset_v1_embeddings/unbal_train/ZR.tfrecord"
        string_val: "/home/ubuntu/EE542_final_project/audioset_v1_embeddings/unbal_train/v3.tfrecord"
        string_val: "/home/ubuntu/EE542_final_project/audioset_v1_embeddings/unbal_train/yE.tfrecord"
        string_val: "/home/ubuntu/EE542_final_project/audioset_v1_embeddings/unbal_train/Tx.tfrecord"
        string_val: "/home/ubuntu/EE542_final_project/audioset_v1_embeddings/unbal_train/tP.tfrecord"
        string_val: "/home/ubuntu/EE542_final_project/audioset_v1_embeddings/unbal_train/95.tfrecord"
        string_val: "/home/ubuntu/EE542_final_project/audioset_v1_embeddings/unbal_train/Ky.tfrecord"
        string_val: "/home/ubuntu/EE542_final_project/audioset_v1_embeddings/unbal_train/VV.tfrecord"
        string_val: "/home/ubuntu/EE542_final_project/audioset_v1_embeddings/unbal_train/Gk.tfrecord"
        string_val: "/home/ubuntu/EE542_final_project/audioset_v1_embeddings/unbal_train/0-.tfrecord"
        string_val: "/home/ubuntu/EE542_final_project/audioset_v1_embeddings/unbal_train/sG.tfrecord"
        string_val: "/home/ubuntu/EE542_final_project/audioset_v1_embeddings/unbal_train/qx.tfrecord"
        string_val: "/home/ubuntu/EE542_final_project/audioset_v1_embeddings/unbal_train/qm.tfrecord"
        string_val: "/home/ubuntu/EE542_final_project/audioset_v1_embeddings/unbal_train/SK.tfrecord"
        string_val: "/home/ubuntu/EE542_final_project/audioset_v1_embeddings/unbal_train/Z1.tfrecord"
        string_val: "/home/ubuntu/EE542_final_project/audioset_v1_embeddings/unbal_train/Bp.tfrecord"
        string_val: "/home/ubuntu/EE542_final_project/audioset_v1_embeddings/unbal_train/2y.tfrecord"
        string_val: "/home/ubuntu/EE542_final_project/audioset_v1_embeddings/unbal_train/TC.tfrecord"
        string_val: "/home/ubuntu/EE542_final_project/audioset_v1_embeddings/unbal_train/G8.tfrecord"
        string_val: "/home/ubuntu/EE542_final_project/audioset_v1_embeddings/unbal_train/RX.tfrecord"
        string_val: "/home/ubuntu/EE542_final_project/audioset_v1_embeddings/unbal_train/MS.tfrecord"
        string_val: "/home/ubuntu/EE542_final_project/audioset_v1_embeddings/unbal_train/QB.tfrecord"
        string_val: "/home/ubuntu/EE542_final_project/audioset_v1_embeddings/unbal_train/Z9.tfrecord"
        string_val: "/home/ubuntu/EE542_final_project/audioset_v1_embeddings/unbal_train/V6.tfrecord"
        string_val: "/home/ubuntu/EE542_final_project/audioset_v1_embeddings/unbal_train/W8.tfrecord"
        string_val: "/home/ubuntu/EE542_final_project/audioset_v1_embeddings/unbal_train/Vq.tfrecord"
        string_val: "/home/ubuntu/EE542_final_project/audioset_v1_embeddings/unbal_train/Ij.tfrecord"
        string_val: "/home/ubuntu/EE542_final_project/audioset_v1_embeddings/unbal_train/m0.tfrecord"
        string_val: "/home/ubuntu/EE542_final_project/audioset_v1_embeddings/unbal_train/po.tfrecord"
        string_val: "/home/ubuntu/EE542_final_project/audioset_v1_embeddings/unbal_train/EA.tfrecord"
        string_val: "/home/ubuntu/EE542_final_project/audioset_v1_embeddings/unbal_train/e0.tfrecord"
        string_val: "/home/ubuntu/EE542_final_project/audioset_v1_embeddings/unbal_train/W_.tfrecord"
        string_val: "/home/ubuntu/EE542_final_project/audioset_v1_embeddings/unbal_train/UQ.tfrecord"
        string_val: "/home/ubuntu/EE542_final_project/audioset_v1_embeddings/unbal_train/1d.tfrecord"
        string_val: "/home/ubuntu/EE542_final_project/audioset_v1_embeddings/unbal_train/lW.tfrecord"
        string_val: "/home/ubuntu/EE542_final_project/audioset_v1_embeddings/unbal_train/HW.tfrecord"
        string_val: "/home/ubuntu/EE542_final_project/audioset_v1_embeddings/unbal_train/hL.tfrecord"
        string_val: "/home/ubuntu/EE542_final_project/audioset_v1_embeddings/unbal_train/Y4.tfrecord"
        string_val: "/home/ubuntu/EE542_final_project/audioset_v1_embeddings/unbal_train/i9.tfrecord"
        string_val: "/home/ubuntu/EE542_final_project/audioset_v1_embeddings/unbal_train/pC.tfrecord"
        string_val: "/home/ubuntu/EE542_final_project/audioset_v1_embeddings/unbal_train/gs.tfrecord"
        string_val: "/home/ubuntu/EE542_final_project/audioset_v1_embeddings/unbal_train/22.tfrecord"
        string_val: "/home/ubuntu/EE542_final_project/audioset_v1_embeddings/unbal_train/7c.tfrecord"
        string_val: "/home/ubuntu/EE542_final_project/audioset_v1_embeddings/unbal_train/w4.tfrecord"
        string_val: "/home/ubuntu/EE542_final_project/audioset_v1_embeddings/unbal_train/85.tfrecord"
        string_val: "/home/ubuntu/EE542_final_project/audioset_v1_embeddings/unbal_train/Cn.tfrecord"
        string_val: "/home/ubuntu/EE542_final_project/audioset_v1_embeddings/unbal_train/xj.tfrecord"
        string_val: "/home/ubuntu/EE542_final_project/audioset_v1_embeddings/unbal_train/TB.tfrecord"
        string_val: "/home/ubuntu/EE542_final_project/audioset_v1_embeddings/unbal_train/9z.tfrecord"
        string_val: "/home/ubuntu/EE542_final_project/audioset_v1_embeddings/unbal_train/-O.tfrecord"
        string_val: "/home/ubuntu/EE542_final_project/audioset_v1_embeddings/unbal_train/DT.tfrecord"
        string_val: "/home/ubuntu/EE542_final_project/audioset_v1_embeddings/unbal_train/dj.tfrecord"
        string_val: "/home/ubuntu/EE542_final_project/audioset_v1_embeddings/unbal_train/XF.tfrecord"
        string_val: "/home/ubuntu/EE542_final_project/audioset_v1_embeddings/unbal_train/6R.tfrecord"
        string_val: "/home/ubuntu/EE542_final_project/audioset_v1_embeddings/unbal_train/Zd.tfrecord"
        string_val: "/home/ubuntu/EE542_final_project/audioset_v1_embeddings/unbal_train/96.tfrecord"
        string_val: "/home/ubuntu/EE542_final_project/audioset_v1_embeddings/unbal_train/M6.tfrecord"
        string_val: "/home/ubuntu/EE542_final_project/audioset_v1_embeddings/unbal_train/dI.tfrecord"
        string_val: "/home/ubuntu/EE542_final_project/audioset_v1_embeddings/unbal_train/Bb.tfrecord"
        string_val: "/home/ubuntu/EE542_final_project/audioset_v1_embeddings/unbal_train/Yn.tfrecord"
        string_val: "/home/ubuntu/EE542_final_project/audioset_v1_embeddings/unbal_train/20.tfrecord"
        string_val: "/home/ubuntu/EE542_final_project/audioset_v1_embeddings/unbal_train/Lj.tfrecord"
        string_val: "/home/ubuntu/EE542_final_project/audioset_v1_embeddings/unbal_train/lT.tfrecord"
        string_val: "/home/ubuntu/EE542_final_project/audioset_v1_embeddings/unbal_train/2B.tfrecord"
        string_val: "/home/ubuntu/EE542_final_project/audioset_v1_embeddings/unbal_train/Hv.tfrecord"
        string_val: "/home/ubuntu/EE542_final_project/audioset_v1_embeddings/unbal_train/g2.tfrecord"
        string_val: "/home/ubuntu/EE542_final_project/audioset_v1_embeddings/unbal_train/CA.tfrecord"
        string_val: "/home/ubuntu/EE542_final_project/audioset_v1_embeddings/unbal_train/1v.tfrecord"
        string_val: "/home/ubuntu/EE542_final_project/audioset_v1_embeddings/unbal_train/o1.tfrecord"
        string_val: "/home/ubuntu/EE542_final_project/audioset_v1_embeddings/unbal_train/jf.tfrecord"
        string_val: "/home/ubuntu/EE542_final_project/audioset_v1_embeddings/unbal_train/V_.tfrecord"
        string_val: "/home/ubuntu/EE542_final_project/audioset_v1_embeddings/unbal_train/_5.tfrecord"
        string_val: "/home/ubuntu/EE542_final_project/audioset_v1_embeddings/unbal_train/H6.tfrecord"
        string_val: "/home/ubuntu/EE542_final_project/audioset_v1_embeddings/unbal_train/6O.tfrecord"
        string_val: "/home/ubuntu/EE542_final_project/audioset_v1_embeddings/unbal_train/tE.tfrecord"
        string_val: "/home/ubuntu/EE542_final_project/audioset_v1_embeddings/unbal_train/MO.tfrecord"
        string_val: "/home/ubuntu/EE542_final_project/audioset_v1_embeddings/unbal_train/tY.tfrecord"
        string_val: "/home/ubuntu/EE542_final_project/audioset_v1_embeddings/unbal_train/-0.tfrecord"
        string_val: "/home/ubuntu/EE542_final_project/audioset_v1_embeddings/unbal_train/c9.tfrecord"
        string_val: "/home/ubuntu/EE542_final_project/audioset_v1_embeddings/unbal_train/qD.tfrecord"
        string_val: "/home/ubuntu/EE542_final_project/audioset_v1_embeddings/unbal_train/27.tfrecord"
        string_val: "/home/ubuntu/EE542_final_project/audioset_v1_embeddings/unbal_train/21.tfrecord"
        string_val: "/home/ubuntu/EE542_final_project/audioset_v1_embeddings/unbal_train/H1.tfrecord"
        string_val: "/home/ubuntu/EE542_final_project/audioset_v1_embeddings/unbal_train/97.tfrecord"
        string_val: "/home/ubuntu/EE542_final_project/audioset_v1_embeddings/unbal_train/p3.tfrecord"
        string_val: "/home/ubuntu/EE542_final_project/audioset_v1_embeddings/unbal_train/uk.tfrecord"
        string_val: "/home/ubuntu/EE542_final_project/audioset_v1_embeddings/unbal_train/Dh.tfrecord"
        string_val: "/home/ubuntu/EE542_final_project/audioset_v1_embeddings/unbal_train/QE.tfrecord"
        string_val: "/home/ubuntu/EE542_final_project/audioset_v1_embeddings/unbal_train/06.tfrecord"
        string_val: "/home/ubuntu/EE542_final_project/audioset_v1_embeddings/unbal_train/-7.tfrecord"
        string_val: "/home/ubuntu/EE542_final_project/audioset_v1_embeddings/unbal_train/ci.tfrecord"
        string_val: "/home/ubuntu/EE542_final_project/audioset_v1_embeddings/unbal_train/o3.tfrecord"
        string_val: "/home/ubuntu/EE542_final_project/audioset_v1_embeddings/unbal_train/Md.tfrecord"
        string_val: "/home/ubuntu/EE542_final_project/audioset_v1_embeddings/unbal_train/MW.tfrecord"
        string_val: "/home/ubuntu/EE542_final_project/audioset_v1_embeddings/unbal_train/K5.tfrecord"
        string_val: "/home/ubuntu/EE542_final_project/audioset_v1_embeddings/unbal_train/DB.tfrecord"
        string_val: "/home/ubuntu/EE542_final_project/audioset_v1_embeddings/unbal_train/co.tfrecord"
        string_val: "/home/ubuntu/EE542_final_project/audioset_v1_embeddings/unbal_train/J6.tfrecord"
        string_val: "/home/ubuntu/EE542_final_project/audioset_v1_embeddings/unbal_train/5Z.tfrecord"
        string_val: "/home/ubuntu/EE542_final_project/audioset_v1_embeddings/unbal_train/cz.tfrecord"
        string_val: "/home/ubuntu/EE542_final_project/audioset_v1_embeddings/unbal_train/e7.tfrecord"
        string_val: "/home/ubuntu/EE542_final_project/audioset_v1_embeddings/unbal_train/PB.tfrecord"
        string_val: "/home/ubuntu/EE542_final_project/audioset_v1_embeddings/unbal_train/DD.tfrecord"
        string_val: "/home/ubuntu/EE542_final_project/audioset_v1_embeddings/unbal_train/RG.tfrecord"
        string_val: "/home/ubuntu/EE542_final_project/audioset_v1_embeddings/unbal_train/8P.tfrecord"
        string_val: "/home/ubuntu/EE542_final_project/audioset_v1_embeddings/unbal_train/o6.tfrecord"
        string_val: "/home/ubuntu/EE542_final_project/audioset_v1_embeddings/unbal_train/VE.tfrecord"
        string_val: "/home/ubuntu/EE542_final_project/audioset_v1_embeddings/unbal_train/qZ.tfrecord"
        string_val: "/home/ubuntu/EE542_final_project/audioset_v1_embeddings/unbal_train/GO.tfrecord"
        string_val: "/home/ubuntu/EE542_final_project/audioset_v1_embeddings/unbal_train/7j.tfrecord"
        string_val: "/home/ubuntu/EE542_final_project/audioset_v1_embeddings/unbal_train/pm.tfrecord"
        string_val: "/home/ubuntu/EE542_final_project/audioset_v1_embeddings/unbal_train/I8.tfrecord"
        string_val: "/home/ubuntu/EE542_final_project/audioset_v1_embeddings/unbal_train/j3.tfrecord"
        string_val: "/home/ubuntu/EE542_final_project/audioset_v1_embeddings/unbal_train/Op.tfrecord"
        string_val: "/home/ubuntu/EE542_final_project/audioset_v1_embeddings/unbal_train/Kr.tfrecord"
        string_val: "/home/ubuntu/EE542_final_project/audioset_v1_embeddings/unbal_train/8D.tfrecord"
        string_val: "/home/ubuntu/EE542_final_project/audioset_v1_embeddings/unbal_train/4n.tfrecord"
        string_val: "/home/ubuntu/EE542_final_project/audioset_v1_embeddings/unbal_train/D0.tfrecord"
        string_val: "/home/ubuntu/EE542_final_project/audioset_v1_embeddings/unbal_train/mP.tfrecord"
        string_val: "/home/ubuntu/EE542_final_project/audioset_v1_embeddings/unbal_train/wH.tfrecord"
        string_val: "/home/ubuntu/EE542_final_project/audioset_v1_embeddings/unbal_train/X0.tfrecord"
        string_val: "/home/ubuntu/EE542_final_project/audioset_v1_embeddings/unbal_train/5v.tfrecord"
        string_val: "/home/ubuntu/EE542_final_project/audioset_v1_embeddings/unbal_train/Ff.tfrecord"
        string_val: "/home/ubuntu/EE542_final_project/audioset_v1_embeddings/unbal_train/vR.tfrecord"
        string_val: "/home/ubuntu/EE542_final_project/audioset_v1_embeddings/unbal_train/30.tfrecord"
        string_val: "/home/ubuntu/EE542_final_project/audioset_v1_embeddings/unbal_train/_Y.tfrecord"
        string_val: "/home/ubuntu/EE542_final_project/audioset_v1_embeddings/unbal_train/SI.tfrecord"
        string_val: "/home/ubuntu/EE542_final_project/audioset_v1_embeddings/unbal_train/XQ.tfrecord"
        string_val: "/home/ubuntu/EE542_final_project/audioset_v1_embeddings/unbal_train/1z.tfrecord"
        string_val: "/home/ubuntu/EE542_final_project/audioset_v1_embeddings/unbal_train/3g.tfrecord"
        string_val: "/home/ubuntu/EE542_final_project/audioset_v1_embeddings/unbal_train/6H.tfrecord"
        string_val: "/home/ubuntu/EE542_final_project/audioset_v1_embeddings/unbal_train/Em.tfrecord"
        string_val: "/home/ubuntu/EE542_final_project/audioset_v1_embeddings/unbal_train/X5.tfrecord"
        string_val: "/home/ubuntu/EE542_final_project/audioset_v1_embeddings/unbal_train/os.tfrecord"
        string_val: "/home/ubuntu/EE542_final_project/audioset_v1_embeddings/unbal_train/Jk.tfrecord"
        string_val: "/home/ubuntu/EE542_final_project/audioset_v1_embeddings/unbal_train/0w.tfrecord"
        string_val: "/home/ubuntu/EE542_final_project/audioset_v1_embeddings/unbal_train/9x.tfrecord"
        string_val: "/home/ubuntu/EE542_final_project/audioset_v1_embeddings/unbal_train/jG.tfrecord"
        string_val: "/home/ubuntu/EE542_final_project/audioset_v1_embeddings/unbal_train/aT.tfrecord"
        string_val: "/home/ubuntu/EE542_final_project/audioset_v1_embeddings/unbal_train/gq.tfrecord"
        string_val: "/home/ubuntu/EE542_final_project/audioset_v1_embeddings/unbal_train/2T.tfrecord"
        string_val: "/home/ubuntu/EE542_final_project/audioset_v1_embeddings/unbal_train/xI.tfrecord"
        string_val: "/home/ubuntu/EE542_final_project/audioset_v1_embeddings/unbal_train/v1.tfrecord"
        string_val: "/home/ubuntu/EE542_final_project/audioset_v1_embeddings/unbal_train/i0.tfrecord"
        string_val: "/home/ubuntu/EE542_final_project/audioset_v1_embeddings/unbal_train/oq.tfrecord"
        string_val: "/home/ubuntu/EE542_final_project/audioset_v1_embeddings/unbal_train/5b.tfrecord"
        string_val: "/home/ubuntu/EE542_final_project/audioset_v1_embeddings/unbal_train/Hr.tfrecord"
        string_val: "/home/ubuntu/EE542_final_project/audioset_v1_embeddings/unbal_train/ZC.tfrecord"
        string_val: "/home/ubuntu/EE542_final_project/audioset_v1_embeddings/unbal_train/-a.tfrecord"
        string_val: "/home/ubuntu/EE542_final_project/audioset_v1_embeddings/unbal_train/pU.tfrecord"
        string_val: "/home/ubuntu/EE542_final_project/audioset_v1_embeddings/unbal_train/Zi.tfrecord"
        string_val: "/home/ubuntu/EE542_final_project/audioset_v1_embeddings/unbal_train/98.tfrecord"
        string_val: "/home/ubuntu/EE542_final_project/audioset_v1_embeddings/unbal_train/-4.tfrecord"
        string_val: "/home/ubuntu/EE542_final_project/audioset_v1_embeddings/unbal_train/3N.tfrecord"
        string_val: "/home/ubuntu/EE542_final_project/audioset_v1_embeddings/unbal_train/_k.tfrecord"
        string_val: "/home/ubuntu/EE542_final_project/audioset_v1_embeddings/unbal_train/jz.tfrecord"
        string_val: "/home/ubuntu/EE542_final_project/audioset_v1_embeddings/unbal_train/A5.tfrecord"
        string_val: "/home/ubuntu/EE542_final_project/audioset_v1_embeddings/unbal_train/Re.tfrecord"
        string_val: "/home/ubuntu/EE542_final_project/audioset_v1_embeddings/unbal_train/dO.tfrecord"
        string_val: "/home/ubuntu/EE542_final_project/audioset_v1_embeddings/unbal_train/BQ.tfrecord"
        string_val: "/home/ubuntu/EE542_final_project/audioset_v1_embeddings/unbal_train/6Z.tfrecord"
        string_val: "/home/ubuntu/EE542_final_project/audioset_v1_embeddings/unbal_train/6V.tfrecord"
        string_val: "/home/ubuntu/EE542_final_project/audioset_v1_embeddings/unbal_train/gA.tfrecord"
        string_val: "/home/ubuntu/EE542_final_project/audioset_v1_embeddings/unbal_train/Fd.tfrecord"
        string_val: "/home/ubuntu/EE542_final_project/audioset_v1_embeddings/unbal_train/N9.tfrecord"
        string_val: "/home/ubuntu/EE542_final_project/audioset_v1_embeddings/unbal_train/rP.tfrecord"
        string_val: "/home/ubuntu/EE542_final_project/audioset_v1_embeddings/unbal_train/x4.tfrecord"
        string_val: "/home/ubuntu/EE542_final_project/audioset_v1_embeddings/unbal_train/b9.tfrecord"
        string_val: "/home/ubuntu/EE542_final_project/audioset_v1_embeddings/unbal_train/_u.tfrecord"
        string_val: "/home/ubuntu/EE542_final_project/audioset_v1_embeddings/unbal_train/wT.tfrecord"
        string_val: "/home/ubuntu/EE542_final_project/audioset_v1_embeddings/unbal_train/LV.tfrecord"
        string_val: "/home/ubuntu/EE542_final_project/audioset_v1_embeddings/unbal_train/Oc.tfrecord"
        string_val: "/home/ubuntu/EE542_final_project/audioset_v1_embeddings/unbal_train/kF.tfrecord"
        string_val: "/home/ubuntu/EE542_final_project/audioset_v1_embeddings/unbal_train/7N.tfrecord"
        string_val: "/home/ubuntu/EE542_final_project/audioset_v1_embeddings/unbal_train/MT.tfrecord"
        string_val: "/home/ubuntu/EE542_final_project/audioset_v1_embeddings/unbal_train/pE.tfrecord"
        string_val: "/home/ubuntu/EE542_final_project/audioset_v1_embeddings/unbal_train/00.tfrecord"
        string_val: "/home/ubuntu/EE542_final_project/audioset_v1_embeddings/unbal_train/u0.tfrecord"
        string_val: "/home/ubuntu/EE542_final_project/audioset_v1_embeddings/unbal_train/_j.tfrecord"
        string_val: "/home/ubuntu/EE542_final_project/audioset_v1_embeddings/unbal_train/LS.tfrecord"
        string_val: "/home/ubuntu/EE542_final_project/audioset_v1_embeddings/unbal_train/fJ.tfrecord"
        string_val: "/home/ubuntu/EE542_final_project/audioset_v1_embeddings/unbal_train/mc.tfrecord"
        string_val: "/home/ubuntu/EE542_final_project/audioset_v1_embeddings/unbal_train/KO.tfrecord"
        string_val: "/home/ubuntu/EE542_final_project/audioset_v1_embeddings/unbal_train/-U.tfrecord"
        string_val: "/home/ubuntu/EE542_final_project/audioset_v1_embeddings/unbal_train/yW.tfrecord"
        string_val: "/home/ubuntu/EE542_final_project/audioset_v1_embeddings/unbal_train/kd.tfrecord"
        string_val: "/home/ubuntu/EE542_final_project/audioset_v1_embeddings/unbal_train/xL.tfrecord"
        string_val: "/home/ubuntu/EE542_final_project/audioset_v1_embeddings/unbal_train/02.tfrecord"
        string_val: "/home/ubuntu/EE542_final_project/audioset_v1_embeddings/unbal_train/hy.tfrecord"
        string_val: "/home/ubuntu/EE542_final_project/audioset_v1_embeddings/unbal_train/3J.tfrecord"
        string_val: "/home/ubuntu/EE542_final_project/audioset_v1_embeddings/unbal_train/32.tfrecord"
        string_val: "/home/ubuntu/EE542_final_project/audioset_v1_embeddings/unbal_train/J7.tfrecord"
        string_val: "/home/ubuntu/EE542_final_project/audioset_v1_embeddings/unbal_train/sd.tfrecord"
        string_val: "/home/ubuntu/EE542_final_project/audioset_v1_embeddings/unbal_train/ZA.tfrecord"
        string_val: "/home/ubuntu/EE542_final_project/audioset_v1_embeddings/unbal_train/EZ.tfrecord"
        string_val: "/home/ubuntu/EE542_final_project/audioset_v1_embeddings/unbal_train/h4.tfrecord"
        string_val: "/home/ubuntu/EE542_final_project/audioset_v1_embeddings/unbal_train/Kv.tfrecord"
        string_val: "/home/ubuntu/EE542_final_project/audioset_v1_embeddings/unbal_train/Y1.tfrecord"
        string_val: "/home/ubuntu/EE542_final_project/audioset_v1_embeddings/unbal_train/k8.tfrecord"
        string_val: "/home/ubuntu/EE542_final_project/audioset_v1_embeddings/unbal_train/a4.tfrecord"
        string_val: "/home/ubuntu/EE542_final_project/audioset_v1_embeddings/unbal_train/F_.tfrecord"
        string_val: "/home/ubuntu/EE542_final_project/audioset_v1_embeddings/unbal_train/TW.tfrecord"
        string_val: "/home/ubuntu/EE542_final_project/audioset_v1_embeddings/unbal_train/7b.tfrecord"
        string_val: "/home/ubuntu/EE542_final_project/audioset_v1_embeddings/unbal_train/cS.tfrecord"
        string_val: "/home/ubuntu/EE542_final_project/audioset_v1_embeddings/unbal_train/n0.tfrecord"
        string_val: "/home/ubuntu/EE542_final_project/audioset_v1_embeddings/unbal_train/25.tfrecord"
        string_val: "/home/ubuntu/EE542_final_project/audioset_v1_embeddings/unbal_train/nq.tfrecord"
        string_val: "/home/ubuntu/EE542_final_project/audioset_v1_embeddings/unbal_train/4z.tfrecord"
        string_val: "/home/ubuntu/EE542_final_project/audioset_v1_embeddings/unbal_train/sZ.tfrecord"
        string_val: "/home/ubuntu/EE542_final_project/audioset_v1_embeddings/unbal_train/ud.tfrecord"
        string_val: "/home/ubuntu/EE542_final_project/audioset_v1_embeddings/unbal_train/qW.tfrecord"
        string_val: "/home/ubuntu/EE542_final_project/audioset_v1_embeddings/unbal_train/7O.tfrecord"
        string_val: "/home/ubuntu/EE542_final_project/audioset_v1_embeddings/unbal_train/G5.tfrecord"
        string_val: "/home/ubuntu/EE542_final_project/audioset_v1_embeddings/unbal_train/fP.tfrecord"
        string_val: "/home/ubuntu/EE542_final_project/audioset_v1_embeddings/unbal_train/4Y.tfrecord"
        string_val: "/home/ubuntu/EE542_final_project/audioset_v1_embeddings/unbal_train/Nk.tfrecord"
        string_val: "/home/ubuntu/EE542_final_project/audioset_v1_embeddings/unbal_train/pW.tfrecord"
        string_val: "/home/ubuntu/EE542_final_project/audioset_v1_embeddings/unbal_train/y9.tfrecord"
        string_val: "/home/ubuntu/EE542_final_project/audioset_v1_embeddings/unbal_train/12.tfrecord"
        string_val: "/home/ubuntu/EE542_final_project/audioset_v1_embeddings/unbal_train/ET.tfrecord"
        string_val: "/home/ubuntu/EE542_final_project/audioset_v1_embeddings/unbal_train/Qs.tfrecord"
        string_val: "/home/ubuntu/EE542_final_project/audioset_v1_embeddings/unbal_train/kC.tfrecord"
        string_val: "/home/ubuntu/EE542_final_project/audioset_v1_embeddings/unbal_train/_r.tfrecord"
        string_val: "/home/ubuntu/EE542_final_project/audioset_v1_embeddings/unbal_train/5w.tfrecord"
        string_val: "/home/ubuntu/EE542_final_project/audioset_v1_embeddings/unbal_train/lF.tfrecord"
        string_val: "/home/ubuntu/EE542_final_project/audioset_v1_embeddings/unbal_train/09.tfrecord"
        string_val: "/home/ubuntu/EE542_final_project/audioset_v1_embeddings/unbal_train/KJ.tfrecord"
        string_val: "/home/ubuntu/EE542_final_project/audioset_v1_embeddings/unbal_train/He.tfrecord"
        string_val: "/home/ubuntu/EE542_final_project/audioset_v1_embeddings/unbal_train/3r.tfrecord"
        string_val: "/home/ubuntu/EE542_final_project/audioset_v1_embeddings/unbal_train/39.tfrecord"
        string_val: "/home/ubuntu/EE542_final_project/audioset_v1_embeddings/unbal_train/l7.tfrecord"
        string_val: "/home/ubuntu/EE542_final_project/audioset_v1_embeddings/unbal_train/F0.tfrecord"
        string_val: "/home/ubuntu/EE542_final_project/audioset_v1_embeddings/unbal_train/v2.tfrecord"
        string_val: "/home/ubuntu/EE542_final_project/audioset_v1_embeddings/unbal_train/y8.tfrecord"
        string_val: "/home/ubuntu/EE542_final_project/audioset_v1_embeddings/unbal_train/dG.tfrecord"
        string_val: "/home/ubuntu/EE542_final_project/audioset_v1_embeddings/unbal_train/8Z.tfrecord"
        string_val: "/home/ubuntu/EE542_final_project/audioset_v1_embeddings/unbal_train/s1.tfrecord"
        string_val: "/home/ubuntu/EE542_final_project/audioset_v1_embeddings/unbal_train/1R.tfrecord"
        string_val: "/home/ubuntu/EE542_final_project/audioset_v1_embeddings/unbal_train/wu.tfrecord"
        string_val: "/home/ubuntu/EE542_final_project/audioset_v1_embeddings/unbal_train/aj.tfrecord"
        string_val: "/home/ubuntu/EE542_final_project/audioset_v1_embeddings/unbal_train/2e.tfrecord"
        string_val: "/home/ubuntu/EE542_final_project/audioset_v1_embeddings/unbal_train/Cr.tfrecord"
        string_val: "/home/ubuntu/EE542_final_project/audioset_v1_embeddings/unbal_train/4_.tfrecord"
        string_val: "/home/ubuntu/EE542_final_project/audioset_v1_embeddings/unbal_train/6m.tfrecord"
        string_val: "/home/ubuntu/EE542_final_project/audioset_v1_embeddings/unbal_train/mE.tfrecord"
        string_val: "/home/ubuntu/EE542_final_project/audioset_v1_embeddings/unbal_train/jM.tfrecord"
        string_val: "/home/ubuntu/EE542_final_project/audioset_v1_embeddings/unbal_train/LE.tfrecord"
        string_val: "/home/ubuntu/EE542_final_project/audioset_v1_embeddings/unbal_train/14.tfrecord"
        string_val: "/home/ubuntu/EE542_final_project/audioset_v1_embeddings/unbal_train/C6.tfrecord"
        string_val: "/home/ubuntu/EE542_final_project/audioset_v1_embeddings/unbal_train/N3.tfrecord"
        string_val: "/home/ubuntu/EE542_final_project/audioset_v1_embeddings/unbal_train/D1.tfrecord"
        string_val: "/home/ubuntu/EE542_final_project/audioset_v1_embeddings/unbal_train/f4.tfrecord"
        string_val: "/home/ubuntu/EE542_final_project/audioset_v1_embeddings/unbal_train/-6.tfrecord"
        string_val: "/home/ubuntu/EE542_final_project/audioset_v1_embeddings/unbal_train/0A.tfrecord"
        string_val: "/home/ubuntu/EE542_final_project/audioset_v1_embeddings/unbal_train/D4.tfrecord"
        string_val: "/home/ubuntu/EE542_final_project/audioset_v1_embeddings/unbal_train/Gw.tfrecord"
        string_val: "/home/ubuntu/EE542_final_project/audioset_v1_embeddings/unbal_train/tV.tfrecord"
        string_val: "/home/ubuntu/EE542_final_project/audioset_v1_embeddings/unbal_train/i-.tfrecord"
        string_val: "/home/ubuntu/EE542_final_project/audioset_v1_embeddings/unbal_train/-P.tfrecord"
        string_val: "/home/ubuntu/EE542_final_project/audioset_v1_embeddings/unbal_train/2r.tfrecord"
        string_val: "/home/ubuntu/EE542_final_project/audioset_v1_embeddings/unbal_train/q8.tfrecord"
        string_val: "/home/ubuntu/EE542_final_project/audioset_v1_embeddings/unbal_train/E2.tfrecord"
        string_val: "/home/ubuntu/EE542_final_project/audioset_v1_embeddings/unbal_train/QQ.tfrecord"
        string_val: "/home/ubuntu/EE542_final_project/audioset_v1_embeddings/unbal_train/Hb.tfrecord"
        string_val: "/home/ubuntu/EE542_final_project/audioset_v1_embeddings/unbal_train/40.tfrecord"
        string_val: "/home/ubuntu/EE542_final_project/audioset_v1_embeddings/unbal_train/dl.tfrecord"
        string_val: "/home/ubuntu/EE542_final_project/audioset_v1_embeddings/unbal_train/C5.tfrecord"
        string_val: "/home/ubuntu/EE542_final_project/audioset_v1_embeddings/unbal_train/o-.tfrecord"
        string_val: "/home/ubuntu/EE542_final_project/audioset_v1_embeddings/unbal_train/r6.tfrecord"
        string_val: "/home/ubuntu/EE542_final_project/audioset_v1_embeddings/unbal_train/Ni.tfrecord"
        string_val: "/home/ubuntu/EE542_final_project/audioset_v1_embeddings/unbal_train/yZ.tfrecord"
        string_val: "/home/ubuntu/EE542_final_project/audioset_v1_embeddings/unbal_train/7z.tfrecord"
        string_val: "/home/ubuntu/EE542_final_project/audioset_v1_embeddings/unbal_train/1m.tfrecord"
        string_val: "/home/ubuntu/EE542_final_project/audioset_v1_embeddings/unbal_train/wz.tfrecord"
        string_val: "/home/ubuntu/EE542_final_project/audioset_v1_embeddings/unbal_train/VB.tfrecord"
        string_val: "/home/ubuntu/EE542_final_project/audioset_v1_embeddings/unbal_train/2a.tfrecord"
        string_val: "/home/ubuntu/EE542_final_project/audioset_v1_embeddings/unbal_train/SJ.tfrecord"
        string_val: "/home/ubuntu/EE542_final_project/audioset_v1_embeddings/unbal_train/tm.tfrecord"
        string_val: "/home/ubuntu/EE542_final_project/audioset_v1_embeddings/unbal_train/_n.tfrecord"
        string_val: "/home/ubuntu/EE542_final_project/audioset_v1_embeddings/unbal_train/w-.tfrecord"
        string_val: "/home/ubuntu/EE542_final_project/audioset_v1_embeddings/unbal_train/ki.tfrecord"
        string_val: "/home/ubuntu/EE542_final_project/audioset_v1_embeddings/unbal_train/yL.tfrecord"
        string_val: "/home/ubuntu/EE542_final_project/audioset_v1_embeddings/unbal_train/oi.tfrecord"
        string_val: "/home/ubuntu/EE542_final_project/audioset_v1_embeddings/unbal_train/3q.tfrecord"
        string_val: "/home/ubuntu/EE542_final_project/audioset_v1_embeddings/unbal_train/9o.tfrecord"
        string_val: "/home/ubuntu/EE542_final_project/audioset_v1_embeddings/unbal_train/n8.tfrecord"
        string_val: "/home/ubuntu/EE542_final_project/audioset_v1_embeddings/unbal_train/bm.tfrecord"
        string_val: "/home/ubuntu/EE542_final_project/audioset_v1_embeddings/unbal_train/VJ.tfrecord"
        string_val: "/home/ubuntu/EE542_final_project/audioset_v1_embeddings/unbal_train/Oh.tfrecord"
        string_val: "/home/ubuntu/EE542_final_project/audioset_v1_embeddings/unbal_train/2N.tfrecord"
        string_val: "/home/ubuntu/EE542_final_project/audioset_v1_embeddings/unbal_train/-D.tfrecord"
        string_val: "/home/ubuntu/EE542_final_project/audioset_v1_embeddings/unbal_train/gb.tfrecord"
        string_val: "/home/ubuntu/EE542_final_project/audioset_v1_embeddings/unbal_train/7d.tfrecord"
        string_val: "/home/ubuntu/EE542_final_project/audioset_v1_embeddings/unbal_train/9g.tfrecord"
        string_val: "/home/ubuntu/EE542_final_project/audioset_v1_embeddings/unbal_train/13.tfrecord"
        string_val: "/home/ubuntu/EE542_final_project/audioset_v1_embeddings/unbal_train/2p.tfrecord"
        string_val: "/home/ubuntu/EE542_final_project/audioset_v1_embeddings/unbal_train/w5.tfrecord"
        string_val: "/home/ubuntu/EE542_final_project/audioset_v1_embeddings/unbal_train/zm.tfrecord"
        string_val: "/home/ubuntu/EE542_final_project/audioset_v1_embeddings/unbal_train/J0.tfrecord"
        string_val: "/home/ubuntu/EE542_final_project/audioset_v1_embeddings/unbal_train/q0.tfrecord"
        string_val: "/home/ubuntu/EE542_final_project/audioset_v1_embeddings/unbal_train/E3.tfrecord"
        string_val: "/home/ubuntu/EE542_final_project/audioset_v1_embeddings/unbal_train/4b.tfrecord"
        string_val: "/home/ubuntu/EE542_final_project/audioset_v1_embeddings/unbal_train/r0.tfrecord"
        string_val: "/home/ubuntu/EE542_final_project/audioset_v1_embeddings/unbal_train/5T.tfrecord"
        string_val: "/home/ubuntu/EE542_final_project/audioset_v1_embeddings/unbal_train/1n.tfrecord"
        string_val: "/home/ubuntu/EE542_final_project/audioset_v1_embeddings/unbal_train/R3.tfrecord"
        string_val: "/home/ubuntu/EE542_final_project/audioset_v1_embeddings/unbal_train/9_.tfrecord"
        string_val: "/home/ubuntu/EE542_final_project/audioset_v1_embeddings/unbal_train/--.tfrecord"
        string_val: "/home/ubuntu/EE542_final_project/audioset_v1_embeddings/unbal_train/-e.tfrecord"
        string_val: "/home/ubuntu/EE542_final_project/audioset_v1_embeddings/unbal_train/Pk.tfrecord"
        string_val: "/home/ubuntu/EE542_final_project/audioset_v1_embeddings/unbal_train/vL.tfrecord"
        string_val: "/home/ubuntu/EE542_final_project/audioset_v1_embeddings/unbal_train/h7.tfrecord"
        string_val: "/home/ubuntu/EE542_final_project/audioset_v1_embeddings/unbal_train/8b.tfrecord"
        string_val: "/home/ubuntu/EE542_final_project/audioset_v1_embeddings/unbal_train/rY.tfrecord"
        string_val: "/home/ubuntu/EE542_final_project/audioset_v1_embeddings/unbal_train/_X.tfrecord"
        string_val: "/home/ubuntu/EE542_final_project/audioset_v1_embeddings/unbal_train/M1.tfrecord"
        string_val: "/home/ubuntu/EE542_final_project/audioset_v1_embeddings/unbal_train/t6.tfrecord"
        string_val: "/home/ubuntu/EE542_final_project/audioset_v1_embeddings/unbal_train/ph.tfrecord"
        string_val: "/home/ubuntu/EE542_final_project/audioset_v1_embeddings/unbal_train/It.tfrecord"
        string_val: "/home/ubuntu/EE542_final_project/audioset_v1_embeddings/unbal_train/8-.tfrecord"
        string_val: "/home/ubuntu/EE542_final_project/audioset_v1_embeddings/unbal_train/VZ.tfrecord"
        string_val: "/home/ubuntu/EE542_final_project/audioset_v1_embeddings/unbal_train/L8.tfrecord"
        string_val: "/home/ubuntu/EE542_final_project/audioset_v1_embeddings/unbal_train/qL.tfrecord"
        string_val: "/home/ubuntu/EE542_final_project/audioset_v1_embeddings/unbal_train/q3.tfrecord"
        string_val: "/home/ubuntu/EE542_final_project/audioset_v1_embeddings/unbal_train/h_.tfrecord"
        string_val: "/home/ubuntu/EE542_final_project/audioset_v1_embeddings/unbal_train/1A.tfrecord"
        string_val: "/home/ubuntu/EE542_final_project/audioset_v1_embeddings/unbal_train/B3.tfrecord"
        string_val: "/home/ubuntu/EE542_final_project/audioset_v1_embeddings/unbal_train/b2.tfrecord"
        string_val: "/home/ubuntu/EE542_final_project/audioset_v1_embeddings/unbal_train/M_.tfrecord"
        string_val: "/home/ubuntu/EE542_final_project/audioset_v1_embeddings/unbal_train/F6.tfrecord"
        string_val: "/home/ubuntu/EE542_final_project/audioset_v1_embeddings/unbal_train/0Q.tfrecord"
        string_val: "/home/ubuntu/EE542_final_project/audioset_v1_embeddings/unbal_train/6e.tfrecord"
        string_val: "/home/ubuntu/EE542_final_project/audioset_v1_embeddings/unbal_train/34.tfrecord"
        string_val: "/home/ubuntu/EE542_final_project/audioset_v1_embeddings/unbal_train/i_.tfrecord"
        string_val: "/home/ubuntu/EE542_final_project/audioset_v1_embeddings/unbal_train/9N.tfrecord"
        string_val: "/home/ubuntu/EE542_final_project/audioset_v1_embeddings/unbal_train/2S.tfrecord"
        string_val: "/home/ubuntu/EE542_final_project/audioset_v1_embeddings/unbal_train/B-.tfrecord"
        string_val: "/home/ubuntu/EE542_final_project/audioset_v1_embeddings/unbal_train/df.tfrecord"
        string_val: "/home/ubuntu/EE542_final_project/audioset_v1_embeddings/unbal_train/1H.tfrecord"
        string_val: "/home/ubuntu/EE542_final_project/audioset_v1_embeddings/unbal_train/Bs.tfrecord"
        string_val: "/home/ubuntu/EE542_final_project/audioset_v1_embeddings/unbal_train/TR.tfrecord"
        string_val: "/home/ubuntu/EE542_final_project/audioset_v1_embeddings/unbal_train/mU.tfrecord"
        string_val: "/home/ubuntu/EE542_final_project/audioset_v1_embeddings/unbal_train/dn.tfrecord"
        string_val: "/home/ubuntu/EE542_final_project/audioset_v1_embeddings/unbal_train/Ep.tfrecord"
        string_val: "/home/ubuntu/EE542_final_project/audioset_v1_embeddings/unbal_train/kW.tfrecord"
        string_val: "/home/ubuntu/EE542_final_project/audioset_v1_embeddings/unbal_train/fw.tfrecord"
        string_val: "/home/ubuntu/EE542_final_project/audioset_v1_embeddings/unbal_train/mL.tfrecord"
        string_val: "/home/ubuntu/EE542_final_project/audioset_v1_embeddings/unbal_train/A1.tfrecord"
        string_val: "/home/ubuntu/EE542_final_project/audioset_v1_embeddings/unbal_train/3l.tfrecord"
        string_val: "/home/ubuntu/EE542_final_project/audioset_v1_embeddings/unbal_train/8F.tfrecord"
        string_val: "/home/ubuntu/EE542_final_project/audioset_v1_embeddings/unbal_train/wA.tfrecord"
        string_val: "/home/ubuntu/EE542_final_project/audioset_v1_embeddings/unbal_train/IQ.tfrecord"
        string_val: "/home/ubuntu/EE542_final_project/audioset_v1_embeddings/unbal_train/Zq.tfrecord"
        string_val: "/home/ubuntu/EE542_final_project/audioset_v1_embeddings/unbal_train/uA.tfrecord"
        string_val: "/home/ubuntu/EE542_final_project/audioset_v1_embeddings/unbal_train/UZ.tfrecord"
        string_val: "/home/ubuntu/EE542_final_project/audioset_v1_embeddings/unbal_train/T3.tfrecord"
        string_val: "/home/ubuntu/EE542_final_project/audioset_v1_embeddings/unbal_train/66.tfrecord"
        string_val: "/home/ubuntu/EE542_final_project/audioset_v1_embeddings/unbal_train/g6.tfrecord"
        string_val: "/home/ubuntu/EE542_final_project/audioset_v1_embeddings/unbal_train/MJ.tfrecord"
        string_val: "/home/ubuntu/EE542_final_project/audioset_v1_embeddings/unbal_train/5e.tfrecord"
        string_val: "/home/ubuntu/EE542_final_project/audioset_v1_embeddings/unbal_train/6Y.tfrecord"
        string_val: "/home/ubuntu/EE542_final_project/audioset_v1_embeddings/unbal_train/P7.tfrecord"
        string_val: "/home/ubuntu/EE542_final_project/audioset_v1_embeddings/unbal_train/JU.tfrecord"
        string_val: "/home/ubuntu/EE542_final_project/audioset_v1_embeddings/unbal_train/vt.tfrecord"
        string_val: "/home/ubuntu/EE542_final_project/audioset_v1_embeddings/unbal_train/U2.tfrecord"
        string_val: "/home/ubuntu/EE542_final_project/audioset_v1_embeddings/unbal_train/_-.tfrecord"
        string_val: "/home/ubuntu/EE542_final_project/audioset_v1_embeddings/unbal_train/3s.tfrecord"
        string_val: "/home/ubuntu/EE542_final_project/audioset_v1_embeddings/unbal_train/FO.tfrecord"
        string_val: "/home/ubuntu/EE542_final_project/audioset_v1_embeddings/unbal_train/p6.tfrecord"
        string_val: "/home/ubuntu/EE542_final_project/audioset_v1_embeddings/unbal_train/8t.tfrecord"
        string_val: "/home/ubuntu/EE542_final_project/audioset_v1_embeddings/unbal_train/Nw.tfrecord"
        string_val: "/home/ubuntu/EE542_final_project/audioset_v1_embeddings/unbal_train/CW.tfrecord"
        string_val: "/home/ubuntu/EE542_final_project/audioset_v1_embeddings/unbal_train/8j.tfrecord"
        string_val: "/home/ubuntu/EE542_final_project/audioset_v1_embeddings/unbal_train/Cu.tfrecord"
        string_val: "/home/ubuntu/EE542_final_project/audioset_v1_embeddings/unbal_train/Ds.tfrecord"
        string_val: "/home/ubuntu/EE542_final_project/audioset_v1_embeddings/unbal_train/4j.tfrecord"
        string_val: "/home/ubuntu/EE542_final_project/audioset_v1_embeddings/unbal_train/Vm.tfrecord"
        string_val: "/home/ubuntu/EE542_final_project/audioset_v1_embeddings/unbal_train/x-.tfrecord"
        string_val: "/home/ubuntu/EE542_final_project/audioset_v1_embeddings/unbal_train/8c.tfrecord"
        string_val: "/home/ubuntu/EE542_final_project/audioset_v1_embeddings/unbal_train/OK.tfrecord"
        string_val: "/home/ubuntu/EE542_final_project/audioset_v1_embeddings/unbal_train/Q-.tfrecord"
        string_val: "/home/ubuntu/EE542_final_project/audioset_v1_embeddings/unbal_train/Fb.tfrecord"
        string_val: "/home/ubuntu/EE542_final_project/audioset_v1_embeddings/unbal_train/_p.tfrecord"
        string_val: "/home/ubuntu/EE542_final_project/audioset_v1_embeddings/unbal_train/p1.tfrecord"
        string_val: "/home/ubuntu/EE542_final_project/audioset_v1_embeddings/unbal_train/WK.tfrecord"
        string_val: "/home/ubuntu/EE542_final_project/audioset_v1_embeddings/unbal_train/49.tfrecord"
        string_val: "/home/ubuntu/EE542_final_project/audioset_v1_embeddings/unbal_train/hh.tfrecord"
        string_val: "/home/ubuntu/EE542_final_project/audioset_v1_embeddings/unbal_train/Xg.tfrecord"
        string_val: "/home/ubuntu/EE542_final_project/audioset_v1_embeddings/unbal_train/WO.tfrecord"
        string_val: "/home/ubuntu/EE542_final_project/audioset_v1_embeddings/unbal_train/Rb.tfrecord"
        string_val: "/home/ubuntu/EE542_final_project/audioset_v1_embeddings/unbal_train/8U.tfrecord"
        string_val: "/home/ubuntu/EE542_final_project/audioset_v1_embeddings/unbal_train/nh.tfrecord"
        string_val: "/home/ubuntu/EE542_final_project/audioset_v1_embeddings/unbal_train/3P.tfrecord"
        string_val: "/home/ubuntu/EE542_final_project/audioset_v1_embeddings/unbal_train/Eq.tfrecord"
        string_val: "/home/ubuntu/EE542_final_project/audioset_v1_embeddings/unbal_train/nP.tfrecord"
        string_val: "/home/ubuntu/EE542_final_project/audioset_v1_embeddings/unbal_train/Cl.tfrecord"
        string_val: "/home/ubuntu/EE542_final_project/audioset_v1_embeddings/unbal_train/1f.tfrecord"
        string_val: "/home/ubuntu/EE542_final_project/audioset_v1_embeddings/unbal_train/_L.tfrecord"
        string_val: "/home/ubuntu/EE542_final_project/audioset_v1_embeddings/unbal_train/4D.tfrecord"
        string_val: "/home/ubuntu/EE542_final_project/audioset_v1_embeddings/unbal_train/mV.tfrecord"
        string_val: "/home/ubuntu/EE542_final_project/audioset_v1_embeddings/unbal_train/9w.tfrecord"
        string_val: "/home/ubuntu/EE542_final_project/audioset_v1_embeddings/unbal_train/u9.tfrecord"
        string_val: "/home/ubuntu/EE542_final_project/audioset_v1_embeddings/unbal_train/-H.tfrecord"
        string_val: "/home/ubuntu/EE542_final_project/audioset_v1_embeddings/unbal_train/bA.tfrecord"
        string_val: "/home/ubuntu/EE542_final_project/audioset_v1_embeddings/unbal_train/aZ.tfrecord"
        string_val: "/home/ubuntu/EE542_final_project/audioset_v1_embeddings/unbal_train/-S.tfrecord"
        string_val: "/home/ubuntu/EE542_final_project/audioset_v1_embeddings/unbal_train/dP.tfrecord"
        string_val: "/home/ubuntu/EE542_final_project/audioset_v1_embeddings/unbal_train/U-.tfrecord"
        string_val: "/home/ubuntu/EE542_final_project/audioset_v1_embeddings/unbal_train/jc.tfrecord"
        string_val: "/home/ubuntu/EE542_final_project/audioset_v1_embeddings/unbal_train/08.tfrecord"
        string_val: "/home/ubuntu/EE542_final_project/audioset_v1_embeddings/unbal_train/cX.tfrecord"
        string_val: "/home/ubuntu/EE542_final_project/audioset_v1_embeddings/unbal_train/XM.tfrecord"
        string_val: "/home/ubuntu/EE542_final_project/audioset_v1_embeddings/unbal_train/vh.tfrecord"
        string_val: "/home/ubuntu/EE542_final_project/audioset_v1_embeddings/unbal_train/v-.tfrecord"
        string_val: "/home/ubuntu/EE542_final_project/audioset_v1_embeddings/unbal_train/9K.tfrecord"
        string_val: "/home/ubuntu/EE542_final_project/audioset_v1_embeddings/unbal_train/6j.tfrecord"
        string_val: "/home/ubuntu/EE542_final_project/audioset_v1_embeddings/unbal_train/U3.tfrecord"
        string_val: "/home/ubuntu/EE542_final_project/audioset_v1_embeddings/unbal_train/HN.tfrecord"
        string_val: "/home/ubuntu/EE542_final_project/audioset_v1_embeddings/unbal_train/p5.tfrecord"
        string_val: "/home/ubuntu/EE542_final_project/audioset_v1_embeddings/unbal_train/W1.tfrecord"
        string_val: "/home/ubuntu/EE542_final_project/audioset_v1_embeddings/unbal_train/jh.tfrecord"
        string_val: "/home/ubuntu/EE542_final_project/audioset_v1_embeddings/unbal_train/We.tfrecord"
        string_val: "/home/ubuntu/EE542_final_project/audioset_v1_embeddings/unbal_train/KB.tfrecord"
        string_val: "/home/ubuntu/EE542_final_project/audioset_v1_embeddings/unbal_train/JS.tfrecord"
        string_val: "/home/ubuntu/EE542_final_project/audioset_v1_embeddings/unbal_train/CT.tfrecord"
        string_val: "/home/ubuntu/EE542_final_project/audioset_v1_embeddings/unbal_train/C3.tfrecord"
        string_val: "/home/ubuntu/EE542_final_project/audioset_v1_embeddings/unbal_train/d8.tfrecord"
        string_val: "/home/ubuntu/EE542_final_project/audioset_v1_embeddings/unbal_train/m3.tfrecord"
        string_val: "/home/ubuntu/EE542_final_project/audioset_v1_embeddings/unbal_train/MI.tfrecord"
        string_val: "/home/ubuntu/EE542_final_project/audioset_v1_embeddings/unbal_train/6S.tfrecord"
        string_val: "/home/ubuntu/EE542_final_project/audioset_v1_embeddings/unbal_train/El.tfrecord"
        string_val: "/home/ubuntu/EE542_final_project/audioset_v1_embeddings/unbal_train/94.tfrecord"
        string_val: "/home/ubuntu/EE542_final_project/audioset_v1_embeddings/unbal_train/EI.tfrecord"
        string_val: "/home/ubuntu/EE542_final_project/audioset_v1_embeddings/unbal_train/z2.tfrecord"
        string_val: "/home/ubuntu/EE542_final_project/audioset_v1_embeddings/unbal_train/Cq.tfrecord"
        string_val: "/home/ubuntu/EE542_final_project/audioset_v1_embeddings/unbal_train/17.tfrecord"
        string_val: "/home/ubuntu/EE542_final_project/audioset_v1_embeddings/unbal_train/R2.tfrecord"
        string_val: "/home/ubuntu/EE542_final_project/audioset_v1_embeddings/unbal_train/Bh.tfrecord"
        string_val: "/home/ubuntu/EE542_final_project/audioset_v1_embeddings/unbal_train/FZ.tfrecord"
        string_val: "/home/ubuntu/EE542_final_project/audioset_v1_embeddings/unbal_train/9V.tfrecord"
        string_val: "/home/ubuntu/EE542_final_project/audioset_v1_embeddings/unbal_train/-q.tfrecord"
        string_val: "/home/ubuntu/EE542_final_project/audioset_v1_embeddings/unbal_train/p0.tfrecord"
        string_val: "/home/ubuntu/EE542_final_project/audioset_v1_embeddings/unbal_train/aK.tfrecord"
        string_val: "/home/ubuntu/EE542_final_project/audioset_v1_embeddings/unbal_train/I4.tfrecord"
        string_val: "/home/ubuntu/EE542_final_project/audioset_v1_embeddings/unbal_train/Mn.tfrecord"
        string_val: "/home/ubuntu/EE542_final_project/audioset_v1_embeddings/unbal_train/t1.tfrecord"
        string_val: "/home/ubuntu/EE542_final_project/audioset_v1_embeddings/unbal_train/xt.tfrecord"
        string_val: "/home/ubuntu/EE542_final_project/audioset_v1_embeddings/unbal_train/Vo.tfrecord"
        string_val: "/home/ubuntu/EE542_final_project/audioset_v1_embeddings/unbal_train/KG.tfrecord"
        string_val: "/home/ubuntu/EE542_final_project/audioset_v1_embeddings/unbal_train/2o.tfrecord"
        string_val: "/home/ubuntu/EE542_final_project/audioset_v1_embeddings/unbal_train/Dr.tfrecord"
        string_val: "/home/ubuntu/EE542_final_project/audioset_v1_embeddings/unbal_train/2Q.tfrecord"
        string_val: "/home/ubuntu/EE542_final_project/audioset_v1_embeddings/unbal_train/t7.tfrecord"
        string_val: "/home/ubuntu/EE542_final_project/audioset_v1_embeddings/unbal_train/wJ.tfrecord"
        string_val: "/home/ubuntu/EE542_final_project/audioset_v1_embeddings/unbal_train/qG.tfrecord"
        string_val: "/home/ubuntu/EE542_final_project/audioset_v1_embeddings/unbal_train/IG.tfrecord"
        string_val: "/home/ubuntu/EE542_final_project/audioset_v1_embeddings/unbal_train/q9.tfrecord"
        string_val: "/home/ubuntu/EE542_final_project/audioset_v1_embeddings/unbal_train/2J.tfrecord"
        string_val: "/home/ubuntu/EE542_final_project/audioset_v1_embeddings/unbal_train/GM.tfrecord"
        string_val: "/home/ubuntu/EE542_final_project/audioset_v1_embeddings/unbal_train/sL.tfrecord"
        string_val: "/home/ubuntu/EE542_final_project/audioset_v1_embeddings/unbal_train/L-.tfrecord"
        string_val: "/home/ubuntu/EE542_final_project/audioset_v1_embeddings/unbal_train/Us.tfrecord"
        string_val: "/home/ubuntu/EE542_final_project/audioset_v1_embeddings/unbal_train/Hu.tfrecord"
        string_val: "/home/ubuntu/EE542_final_project/audioset_v1_embeddings/unbal_train/uP.tfrecord"
        string_val: "/home/ubuntu/EE542_final_project/audioset_v1_embeddings/unbal_train/u7.tfrecord"
        string_val: "/home/ubuntu/EE542_final_project/audioset_v1_embeddings/unbal_train/_3.tfrecord"
        string_val: "/home/ubuntu/EE542_final_project/audioset_v1_embeddings/unbal_train/-T.tfrecord"
        string_val: "/home/ubuntu/EE542_final_project/audioset_v1_embeddings/unbal_train/6P.tfrecord"
        string_val: "/home/ubuntu/EE542_final_project/audioset_v1_embeddings/unbal_train/Ad.tfrecord"
        string_val: "/home/ubuntu/EE542_final_project/audioset_v1_embeddings/unbal_train/hj.tfrecord"
        string_val: "/home/ubuntu/EE542_final_project/audioset_v1_embeddings/unbal_train/67.tfrecord"
        string_val: "/home/ubuntu/EE542_final_project/audioset_v1_embeddings/unbal_train/qO.tfrecord"
        string_val: "/home/ubuntu/EE542_final_project/audioset_v1_embeddings/unbal_train/Zk.tfrecord"
        string_val: "/home/ubuntu/EE542_final_project/audioset_v1_embeddings/unbal_train/X2.tfrecord"
        string_val: "/home/ubuntu/EE542_final_project/audioset_v1_embeddings/unbal_train/b1.tfrecord"
        string_val: "/home/ubuntu/EE542_final_project/audioset_v1_embeddings/unbal_train/gn.tfrecord"
        string_val: "/home/ubuntu/EE542_final_project/audioset_v1_embeddings/unbal_train/4L.tfrecord"
        string_val: "/home/ubuntu/EE542_final_project/audioset_v1_embeddings/unbal_train/AQ.tfrecord"
        string_val: "/home/ubuntu/EE542_final_project/audioset_v1_embeddings/unbal_train/C8.tfrecord"
        string_val: "/home/ubuntu/EE542_final_project/audioset_v1_embeddings/unbal_train/Cd.tfrecord"
        string_val: "/home/ubuntu/EE542_final_project/audioset_v1_embeddings/unbal_train/N7.tfrecord"
        string_val: "/home/ubuntu/EE542_final_project/audioset_v1_embeddings/unbal_train/4q.tfrecord"
        string_val: "/home/ubuntu/EE542_final_project/audioset_v1_embeddings/unbal_train/T4.tfrecord"
        string_val: "/home/ubuntu/EE542_final_project/audioset_v1_embeddings/unbal_train/8l.tfrecord"
        string_val: "/home/ubuntu/EE542_final_project/audioset_v1_embeddings/unbal_train/Kp.tfrecord"
        string_val: "/home/ubuntu/EE542_final_project/audioset_v1_embeddings/unbal_train/pD.tfrecord"
        string_val: "/home/ubuntu/EE542_final_project/audioset_v1_embeddings/unbal_train/TJ.tfrecord"
        string_val: "/home/ubuntu/EE542_final_project/audioset_v1_embeddings/unbal_train/89.tfrecord"
        string_val: "/home/ubuntu/EE542_final_project/audioset_v1_embeddings/unbal_train/81.tfrecord"
        string_val: "/home/ubuntu/EE542_final_project/audioset_v1_embeddings/unbal_train/k9.tfrecord"
        string_val: "/home/ubuntu/EE542_final_project/audioset_v1_embeddings/unbal_train/AM.tfrecord"
        string_val: "/home/ubuntu/EE542_final_project/audioset_v1_embeddings/unbal_train/9T.tfrecord"
        string_val: "/home/ubuntu/EE542_final_project/audioset_v1_embeddings/unbal_train/0R.tfrecord"
        string_val: "/home/ubuntu/EE542_final_project/audioset_v1_embeddings/unbal_train/RV.tfrecord"
        string_val: "/home/ubuntu/EE542_final_project/audioset_v1_embeddings/unbal_train/bI.tfrecord"
        string_val: "/home/ubuntu/EE542_final_project/audioset_v1_embeddings/unbal_train/Y3.tfrecord"
        string_val: "/home/ubuntu/EE542_final_project/audioset_v1_embeddings/unbal_train/my.tfrecord"
        string_val: "/home/ubuntu/EE542_final_project/audioset_v1_embeddings/unbal_train/4C.tfrecord"
        string_val: "/home/ubuntu/EE542_final_project/audioset_v1_embeddings/unbal_train/53.tfrecord"
        string_val: "/home/ubuntu/EE542_final_project/audioset_v1_embeddings/unbal_train/Sh.tfrecord"
        string_val: "/home/ubuntu/EE542_final_project/audioset_v1_embeddings/unbal_train/jJ.tfrecord"
        string_val: "/home/ubuntu/EE542_final_project/audioset_v1_embeddings/unbal_train/Vd.tfrecord"
        string_val: "/home/ubuntu/EE542_final_project/audioset_v1_embeddings/unbal_train/51.tfrecord"
        string_val: "/home/ubuntu/EE542_final_project/audioset_v1_embeddings/unbal_train/NZ.tfrecord"
        string_val: "/home/ubuntu/EE542_final_project/audioset_v1_embeddings/unbal_train/Bj.tfrecord"
        string_val: "/home/ubuntu/EE542_final_project/audioset_v1_embeddings/unbal_train/z0.tfrecord"
        string_val: "/home/ubuntu/EE542_final_project/audioset_v1_embeddings/unbal_train/g9.tfrecord"
        string_val: "/home/ubuntu/EE542_final_project/audioset_v1_embeddings/unbal_train/-x.tfrecord"
        string_val: "/home/ubuntu/EE542_final_project/audioset_v1_embeddings/unbal_train/WP.tfrecord"
        string_val: "/home/ubuntu/EE542_final_project/audioset_v1_embeddings/unbal_train/oD.tfrecord"
        string_val: "/home/ubuntu/EE542_final_project/audioset_v1_embeddings/unbal_train/Hk.tfrecord"
        string_val: "/home/ubuntu/EE542_final_project/audioset_v1_embeddings/unbal_train/7i.tfrecord"
        string_val: "/home/ubuntu/EE542_final_project/audioset_v1_embeddings/unbal_train/9A.tfrecord"
        string_val: "/home/ubuntu/EE542_final_project/audioset_v1_embeddings/unbal_train/P4.tfrecord"
        string_val: "/home/ubuntu/EE542_final_project/audioset_v1_embeddings/unbal_train/f5.tfrecord"
        string_val: "/home/ubuntu/EE542_final_project/audioset_v1_embeddings/unbal_train/Gl.tfrecord"
        string_val: "/home/ubuntu/EE542_final_project/audioset_v1_embeddings/unbal_train/Ke.tfrecord"
        string_val: "/home/ubuntu/EE542_final_project/audioset_v1_embeddings/unbal_train/04.tfrecord"
        string_val: "/home/ubuntu/EE542_final_project/audioset_v1_embeddings/unbal_train/fx.tfrecord"
        string_val: "/home/ubuntu/EE542_final_project/audioset_v1_embeddings/unbal_train/nt.tfrecord"
        string_val: "/home/ubuntu/EE542_final_project/audioset_v1_embeddings/unbal_train/-5.tfrecord"
        string_val: "/home/ubuntu/EE542_final_project/audioset_v1_embeddings/unbal_train/A_.tfrecord"
        string_val: "/home/ubuntu/EE542_final_project/audioset_v1_embeddings/unbal_train/ym.tfrecord"
        string_val: "/home/ubuntu/EE542_final_project/audioset_v1_embeddings/unbal_train/0V.tfrecord"
        string_val: "/home/ubuntu/EE542_final_project/audioset_v1_embeddings/unbal_train/ov.tfrecord"
        string_val: "/home/ubuntu/EE542_final_project/audioset_v1_embeddings/unbal_train/Zv.tfrecord"
        string_val: "/home/ubuntu/EE542_final_project/audioset_v1_embeddings/unbal_train/Bl.tfrecord"
        string_val: "/home/ubuntu/EE542_final_project/audioset_v1_embeddings/unbal_train/2V.tfrecord"
        string_val: "/home/ubuntu/EE542_final_project/audioset_v1_embeddings/unbal_train/p8.tfrecord"
        string_val: "/home/ubuntu/EE542_final_project/audioset_v1_embeddings/unbal_train/NX.tfrecord"
        string_val: "/home/ubuntu/EE542_final_project/audioset_v1_embeddings/unbal_train/xk.tfrecord"
        string_val: "/home/ubuntu/EE542_final_project/audioset_v1_embeddings/unbal_train/Aa.tfrecord"
        string_val: "/home/ubuntu/EE542_final_project/audioset_v1_embeddings/unbal_train/Dk.tfrecord"
        string_val: "/home/ubuntu/EE542_final_project/audioset_v1_embeddings/unbal_train/bT.tfrecord"
        string_val: "/home/ubuntu/EE542_final_project/audioset_v1_embeddings/unbal_train/a9.tfrecord"
        string_val: "/home/ubuntu/EE542_final_project/audioset_v1_embeddings/unbal_train/wc.tfrecord"
        string_val: "/home/ubuntu/EE542_final_project/audioset_v1_embeddings/unbal_train/kk.tfrecord"
        string_val: "/home/ubuntu/EE542_final_project/audioset_v1_embeddings/unbal_train/fR.tfrecord"
        string_val: "/home/ubuntu/EE542_final_project/audioset_v1_embeddings/unbal_train/4T.tfrecord"
        string_val: "/home/ubuntu/EE542_final_project/audioset_v1_embeddings/unbal_train/2M.tfrecord"
        string_val: "/home/ubuntu/EE542_final_project/audioset_v1_embeddings/unbal_train/oa.tfrecord"
        string_val: "/home/ubuntu/EE542_final_project/audioset_v1_embeddings/unbal_train/uv.tfrecord"
        string_val: "/home/ubuntu/EE542_final_project/audioset_v1_embeddings/unbal_train/cg.tfrecord"
        string_val: "/home/ubuntu/EE542_final_project/audioset_v1_embeddings/unbal_train/h-.tfrecord"
        string_val: "/home/ubuntu/EE542_final_project/audioset_v1_embeddings/unbal_train/yj.tfrecord"
        string_val: "/home/ubuntu/EE542_final_project/audioset_v1_embeddings/unbal_train/VS.tfrecord"
        string_val: "/home/ubuntu/EE542_final_project/audioset_v1_embeddings/unbal_train/9m.tfrecord"
        string_val: "/home/ubuntu/EE542_final_project/audioset_v1_embeddings/unbal_train/lp.tfrecord"
        string_val: "/home/ubuntu/EE542_final_project/audioset_v1_embeddings/unbal_train/Hq.tfrecord"
        string_val: "/home/ubuntu/EE542_final_project/audioset_v1_embeddings/unbal_train/Ny.tfrecord"
        string_val: "/home/ubuntu/EE542_final_project/audioset_v1_embeddings/unbal_train/73.tfrecord"
        string_val: "/home/ubuntu/EE542_final_project/audioset_v1_embeddings/unbal_train/pR.tfrecord"
        string_val: "/home/ubuntu/EE542_final_project/audioset_v1_embeddings/unbal_train/7q.tfrecord"
        string_val: "/home/ubuntu/EE542_final_project/audioset_v1_embeddings/unbal_train/dA.tfrecord"
        string_val: "/home/ubuntu/EE542_final_project/audioset_v1_embeddings/unbal_train/iZ.tfrecord"
        string_val: "/home/ubuntu/EE542_final_project/audioset_v1_embeddings/unbal_train/7x.tfrecord"
        string_val: "/home/ubuntu/EE542_final_project/audioset_v1_embeddings/unbal_train/1W.tfrecord"
        string_val: "/home/ubuntu/EE542_final_project/audioset_v1_embeddings/unbal_train/l5.tfrecord"
        string_val: "/home/ubuntu/EE542_final_project/audioset_v1_embeddings/unbal_train/jV.tfrecord"
        string_val: "/home/ubuntu/EE542_final_project/audioset_v1_embeddings/unbal_train/D6.tfrecord"
        string_val: "/home/ubuntu/EE542_final_project/audioset_v1_embeddings/unbal_train/ck.tfrecord"
        string_val: "/home/ubuntu/EE542_final_project/audioset_v1_embeddings/unbal_train/1y.tfrecord"
        string_val: "/home/ubuntu/EE542_final_project/audioset_v1_embeddings/unbal_train/wY.tfrecord"
        string_val: "/home/ubuntu/EE542_final_project/audioset_v1_embeddings/unbal_train/v4.tfrecord"
        string_val: "/home/ubuntu/EE542_final_project/audioset_v1_embeddings/unbal_train/Ht.tfrecord"
        string_val: "/home/ubuntu/EE542_final_project/audioset_v1_embeddings/unbal_train/7-.tfrecord"
        string_val: "/home/ubuntu/EE542_final_project/audioset_v1_embeddings/unbal_train/XR.tfrecord"
        string_val: "/home/ubuntu/EE542_final_project/audioset_v1_embeddings/unbal_train/iX.tfrecord"
        string_val: "/home/ubuntu/EE542_final_project/audioset_v1_embeddings/unbal_train/9H.tfrecord"
        string_val: "/home/ubuntu/EE542_final_project/audioset_v1_embeddings/unbal_train/50.tfrecord"
        string_val: "/home/ubuntu/EE542_final_project/audioset_v1_embeddings/unbal_train/7S.tfrecord"
        string_val: "/home/ubuntu/EE542_final_project/audioset_v1_embeddings/unbal_train/n1.tfrecord"
        string_val: "/home/ubuntu/EE542_final_project/audioset_v1_embeddings/unbal_train/oG.tfrecord"
        string_val: "/home/ubuntu/EE542_final_project/audioset_v1_embeddings/unbal_train/26.tfrecord"
        string_val: "/home/ubuntu/EE542_final_project/audioset_v1_embeddings/unbal_train/0L.tfrecord"
        string_val: "/home/ubuntu/EE542_final_project/audioset_v1_embeddings/unbal_train/h9.tfrecord"
        string_val: "/home/ubuntu/EE542_final_project/audioset_v1_embeddings/unbal_train/8k.tfrecord"
        string_val: "/home/ubuntu/EE542_final_project/audioset_v1_embeddings/unbal_train/93.tfrecord"
        string_val: "/home/ubuntu/EE542_final_project/audioset_v1_embeddings/unbal_train/_I.tfrecord"
        string_val: "/home/ubuntu/EE542_final_project/audioset_v1_embeddings/unbal_train/D_.tfrecord"
        string_val: "/home/ubuntu/EE542_final_project/audioset_v1_embeddings/unbal_train/0k.tfrecord"
        string_val: "/home/ubuntu/EE542_final_project/audioset_v1_embeddings/unbal_train/UU.tfrecord"
        string_val: "/home/ubuntu/EE542_final_project/audioset_v1_embeddings/unbal_train/fh.tfrecord"
        string_val: "/home/ubuntu/EE542_final_project/audioset_v1_embeddings/unbal_train/7F.tfrecord"
        string_val: "/home/ubuntu/EE542_final_project/audioset_v1_embeddings/unbal_train/Ya.tfrecord"
        string_val: "/home/ubuntu/EE542_final_project/audioset_v1_embeddings/unbal_train/Ma.tfrecord"
        string_val: "/home/ubuntu/EE542_final_project/audioset_v1_embeddings/unbal_train/8x.tfrecord"
        string_val: "/home/ubuntu/EE542_final_project/audioset_v1_embeddings/unbal_train/kh.tfrecord"
        string_val: "/home/ubuntu/EE542_final_project/audioset_v1_embeddings/unbal_train/0M.tfrecord"
        string_val: "/home/ubuntu/EE542_final_project/audioset_v1_embeddings/unbal_train/zp.tfrecord"
        string_val: "/home/ubuntu/EE542_final_project/audioset_v1_embeddings/unbal_train/K1.tfrecord"
        string_val: "/home/ubuntu/EE542_final_project/audioset_v1_embeddings/unbal_train/84.tfrecord"
        string_val: "/home/ubuntu/EE542_final_project/audioset_v1_embeddings/unbal_train/60.tfrecord"
        string_val: "/home/ubuntu/EE542_final_project/audioset_v1_embeddings/unbal_train/pI.tfrecord"
        string_val: "/home/ubuntu/EE542_final_project/audioset_v1_embeddings/unbal_train/WB.tfrecord"
        string_val: "/home/ubuntu/EE542_final_project/audioset_v1_embeddings/unbal_train/N2.tfrecord"
        string_val: "/home/ubuntu/EE542_final_project/audioset_v1_embeddings/unbal_train/xp.tfrecord"
        string_val: "/home/ubuntu/EE542_final_project/audioset_v1_embeddings/unbal_train/jQ.tfrecord"
        string_val: "/home/ubuntu/EE542_final_project/audioset_v1_embeddings/unbal_train/kX.tfrecord"
        string_val: "/home/ubuntu/EE542_final_project/audioset_v1_embeddings/unbal_train/19.tfrecord"
        string_val: "/home/ubuntu/EE542_final_project/audioset_v1_embeddings/unbal_train/4x.tfrecord"
        string_val: "/home/ubuntu/EE542_final_project/audioset_v1_embeddings/unbal_train/as.tfrecord"
        string_val: "/home/ubuntu/EE542_final_project/audioset_v1_embeddings/unbal_train/7E.tfrecord"
        string_val: "/home/ubuntu/EE542_final_project/audioset_v1_embeddings/unbal_train/Li.tfrecord"
        string_val: "/home/ubuntu/EE542_final_project/audioset_v1_embeddings/unbal_train/bZ.tfrecord"
        string_val: "/home/ubuntu/EE542_final_project/audioset_v1_embeddings/unbal_train/0B.tfrecord"
        string_val: "/home/ubuntu/EE542_final_project/audioset_v1_embeddings/unbal_train/rz.tfrecord"
        string_val: "/home/ubuntu/EE542_final_project/audioset_v1_embeddings/unbal_train/lA.tfrecord"
        string_val: "/home/ubuntu/EE542_final_project/audioset_v1_embeddings/unbal_train/Yf.tfrecord"
        string_val: "/home/ubuntu/EE542_final_project/audioset_v1_embeddings/unbal_train/pv.tfrecord"
        string_val: "/home/ubuntu/EE542_final_project/audioset_v1_embeddings/unbal_train/-8.tfrecord"
        string_val: "/home/ubuntu/EE542_final_project/audioset_v1_embeddings/unbal_train/35.tfrecord"
        string_val: "/home/ubuntu/EE542_final_project/audioset_v1_embeddings/unbal_train/IY.tfrecord"
        string_val: "/home/ubuntu/EE542_final_project/audioset_v1_embeddings/unbal_train/gU.tfrecord"
        string_val: "/home/ubuntu/EE542_final_project/audioset_v1_embeddings/unbal_train/Ha.tfrecord"
        string_val: "/home/ubuntu/EE542_final_project/audioset_v1_embeddings/unbal_train/ws.tfrecord"
        string_val: "/home/ubuntu/EE542_final_project/audioset_v1_embeddings/unbal_train/wL.tfrecord"
        string_val: "/home/ubuntu/EE542_final_project/audioset_v1_embeddings/unbal_train/6K.tfrecord"
        string_val: "/home/ubuntu/EE542_final_project/audioset_v1_embeddings/unbal_train/80.tfrecord"
        string_val: "/home/ubuntu/EE542_final_project/audioset_v1_embeddings/unbal_train/UM.tfrecord"
        string_val: "/home/ubuntu/EE542_final_project/audioset_v1_embeddings/unbal_train/u1.tfrecord"
        string_val: "/home/ubuntu/EE542_final_project/audioset_v1_embeddings/unbal_train/0O.tfrecord"
        string_val: "/home/ubuntu/EE542_final_project/audioset_v1_embeddings/unbal_train/7w.tfrecord"
        string_val: "/home/ubuntu/EE542_final_project/audioset_v1_embeddings/unbal_train/42.tfrecord"
        string_val: "/home/ubuntu/EE542_final_project/audioset_v1_embeddings/unbal_train/c7.tfrecord"
        string_val: "/home/ubuntu/EE542_final_project/audioset_v1_embeddings/unbal_train/3_.tfrecord"
        string_val: "/home/ubuntu/EE542_final_project/audioset_v1_embeddings/unbal_train/ug.tfrecord"
        string_val: "/home/ubuntu/EE542_final_project/audioset_v1_embeddings/unbal_train/py.tfrecord"
        string_val: "/home/ubuntu/EE542_final_project/audioset_v1_embeddings/unbal_train/68.tfrecord"
        string_val: "/home/ubuntu/EE542_final_project/audioset_v1_embeddings/unbal_train/is.tfrecord"
        string_val: "/home/ubuntu/EE542_final_project/audioset_v1_embeddings/unbal_train/mQ.tfrecord"
        string_val: "/home/ubuntu/EE542_final_project/audioset_v1_embeddings/unbal_train/G1.tfrecord"
        string_val: "/home/ubuntu/EE542_final_project/audioset_v1_embeddings/unbal_train/If.tfrecord"
        string_val: "/home/ubuntu/EE542_final_project/audioset_v1_embeddings/unbal_train/MK.tfrecord"
        string_val: "/home/ubuntu/EE542_final_project/audioset_v1_embeddings/unbal_train/Ay.tfrecord"
        string_val: "/home/ubuntu/EE542_final_project/audioset_v1_embeddings/unbal_train/fa.tfrecord"
        string_val: "/home/ubuntu/EE542_final_project/audioset_v1_embeddings/unbal_train/kS.tfrecord"
        string_val: "/home/ubuntu/EE542_final_project/audioset_v1_embeddings/unbal_train/bd.tfrecord"
        string_val: "/home/ubuntu/EE542_final_project/audioset_v1_embeddings/unbal_train/k0.tfrecord"
        string_val: "/home/ubuntu/EE542_final_project/audioset_v1_embeddings/unbal_train/-3.tfrecord"
        string_val: "/home/ubuntu/EE542_final_project/audioset_v1_embeddings/unbal_train/ag.tfrecord"
        string_val: "/home/ubuntu/EE542_final_project/audioset_v1_embeddings/unbal_train/8q.tfrecord"
        string_val: "/home/ubuntu/EE542_final_project/audioset_v1_embeddings/unbal_train/V8.tfrecord"
        string_val: "/home/ubuntu/EE542_final_project/audioset_v1_embeddings/unbal_train/bO.tfrecord"
        string_val: "/home/ubuntu/EE542_final_project/audioset_v1_embeddings/unbal_train/Ta.tfrecord"
        string_val: "/home/ubuntu/EE542_final_project/audioset_v1_embeddings/unbal_train/NJ.tfrecord"
        string_val: "/home/ubuntu/EE542_final_project/audioset_v1_embeddings/unbal_train/yO.tfrecord"
        string_val: "/home/ubuntu/EE542_final_project/audioset_v1_embeddings/unbal_train/MH.tfrecord"
        string_val: "/home/ubuntu/EE542_final_project/audioset_v1_embeddings/unbal_train/7K.tfrecord"
        string_val: "/home/ubuntu/EE542_final_project/audioset_v1_embeddings/unbal_train/31.tfrecord"
        string_val: "/home/ubuntu/EE542_final_project/audioset_v1_embeddings/unbal_train/Oz.tfrecord"
        string_val: "/home/ubuntu/EE542_final_project/audioset_v1_embeddings/unbal_train/ai.tfrecord"
        string_val: "/home/ubuntu/EE542_final_project/audioset_v1_embeddings/unbal_train/ji.tfrecord"
        string_val: "/home/ubuntu/EE542_final_project/audioset_v1_embeddings/unbal_train/Pq.tfrecord"
        string_val: "/home/ubuntu/EE542_final_project/audioset_v1_embeddings/unbal_train/6b.tfrecord"
        string_val: "/home/ubuntu/EE542_final_project/audioset_v1_embeddings/unbal_train/KU.tfrecord"
        string_val: "/home/ubuntu/EE542_final_project/audioset_v1_embeddings/unbal_train/7a.tfrecord"
        string_val: "/home/ubuntu/EE542_final_project/audioset_v1_embeddings/unbal_train/I2.tfrecord"
        string_val: "/home/ubuntu/EE542_final_project/audioset_v1_embeddings/unbal_train/9R.tfrecord"
        string_val: "/home/ubuntu/EE542_final_project/audioset_v1_embeddings/unbal_train/5u.tfrecord"
        string_val: "/home/ubuntu/EE542_final_project/audioset_v1_embeddings/unbal_train/aL.tfrecord"
        string_val: "/home/ubuntu/EE542_final_project/audioset_v1_embeddings/unbal_train/kQ.tfrecord"
        string_val: "/home/ubuntu/EE542_final_project/audioset_v1_embeddings/unbal_train/FL.tfrecord"
        string_val: "/home/ubuntu/EE542_final_project/audioset_v1_embeddings/unbal_train/qr.tfrecord"
        string_val: "/home/ubuntu/EE542_final_project/audioset_v1_embeddings/unbal_train/OE.tfrecord"
        string_val: "/home/ubuntu/EE542_final_project/audioset_v1_embeddings/unbal_train/8E.tfrecord"
        string_val: "/home/ubuntu/EE542_final_project/audioset_v1_embeddings/unbal_train/24.tfrecord"
        string_val: "/home/ubuntu/EE542_final_project/audioset_v1_embeddings/unbal_train/Er.tfrecord"
        string_val: "/home/ubuntu/EE542_final_project/audioset_v1_embeddings/unbal_train/S9.tfrecord"
        string_val: "/home/ubuntu/EE542_final_project/audioset_v1_embeddings/unbal_train/cF.tfrecord"
        string_val: "/home/ubuntu/EE542_final_project/audioset_v1_embeddings/unbal_train/h2.tfrecord"
        string_val: "/home/ubuntu/EE542_final_project/audioset_v1_embeddings/unbal_train/th.tfrecord"
        string_val: "/home/ubuntu/EE542_final_project/audioset_v1_embeddings/unbal_train/Je.tfrecord"
        string_val: "/home/ubuntu/EE542_final_project/audioset_v1_embeddings/unbal_train/un.tfrecord"
        string_val: "/home/ubuntu/EE542_final_project/audioset_v1_embeddings/unbal_train/M7.tfrecord"
        string_val: "/home/ubuntu/EE542_final_project/audioset_v1_embeddings/unbal_train/Ap.tfrecord"
        string_val: "/home/ubuntu/EE542_final_project/audioset_v1_embeddings/unbal_train/R7.tfrecord"
        string_val: "/home/ubuntu/EE542_final_project/audioset_v1_embeddings/unbal_train/Vu.tfrecord"
        string_val: "/home/ubuntu/EE542_final_project/audioset_v1_embeddings/unbal_train/5N.tfrecord"
        string_val: "/home/ubuntu/EE542_final_project/audioset_v1_embeddings/unbal_train/2g.tfrecord"
        string_val: "/home/ubuntu/EE542_final_project/audioset_v1_embeddings/unbal_train/9B.tfrecord"
        string_val: "/home/ubuntu/EE542_final_project/audioset_v1_embeddings/unbal_train/jy.tfrecord"
        string_val: "/home/ubuntu/EE542_final_project/audioset_v1_embeddings/unbal_train/6_.tfrecord"
        string_val: "/home/ubuntu/EE542_final_project/audioset_v1_embeddings/unbal_train/3H.tfrecord"
        string_val: "/home/ubuntu/EE542_final_project/audioset_v1_embeddings/unbal_train/4H.tfrecord"
        string_val: "/home/ubuntu/EE542_final_project/audioset_v1_embeddings/unbal_train/5J.tfrecord"
        string_val: "/home/ubuntu/EE542_final_project/audioset_v1_embeddings/unbal_train/dY.tfrecord"
        string_val: "/home/ubuntu/EE542_final_project/audioset_v1_embeddings/unbal_train/75.tfrecord"
        string_val: "/home/ubuntu/EE542_final_project/audioset_v1_embeddings/unbal_train/9f.tfrecord"
        string_val: "/home/ubuntu/EE542_final_project/audioset_v1_embeddings/unbal_train/8R.tfrecord"
        string_val: "/home/ubuntu/EE542_final_project/audioset_v1_embeddings/unbal_train/Uo.tfrecord"
        string_val: "/home/ubuntu/EE542_final_project/audioset_v1_embeddings/unbal_train/o8.tfrecord"
        string_val: "/home/ubuntu/EE542_final_project/audioset_v1_embeddings/unbal_train/YG.tfrecord"
        string_val: "/home/ubuntu/EE542_final_project/audioset_v1_embeddings/unbal_train/0n.tfrecord"
        string_val: "/home/ubuntu/EE542_final_project/audioset_v1_embeddings/unbal_train/3z.tfrecord"
        string_val: "/home/ubuntu/EE542_final_project/audioset_v1_embeddings/unbal_train/1K.tfrecord"
        string_val: "/home/ubuntu/EE542_final_project/audioset_v1_embeddings/unbal_train/28.tfrecord"
        string_val: "/home/ubuntu/EE542_final_project/audioset_v1_embeddings/unbal_train/-V.tfrecord"
        string_val: "/home/ubuntu/EE542_final_project/audioset_v1_embeddings/unbal_train/s7.tfrecord"
        string_val: "/home/ubuntu/EE542_final_project/audioset_v1_embeddings/unbal_train/0h.tfrecord"
        string_val: "/home/ubuntu/EE542_final_project/audioset_v1_embeddings/unbal_train/o9.tfrecord"
        string_val: "/home/ubuntu/EE542_final_project/audioset_v1_embeddings/unbal_train/W9.tfrecord"
        string_val: "/home/ubuntu/EE542_final_project/audioset_v1_embeddings/unbal_train/55.tfrecord"
        string_val: "/home/ubuntu/EE542_final_project/audioset_v1_embeddings/unbal_train/bR.tfrecord"
        string_val: "/home/ubuntu/EE542_final_project/audioset_v1_embeddings/unbal_train/l0.tfrecord"
        string_val: "/home/ubuntu/EE542_final_project/audioset_v1_embeddings/unbal_train/TQ.tfrecord"
        string_val: "/home/ubuntu/EE542_final_project/audioset_v1_embeddings/unbal_train/Iu.tfrecord"
        string_val: "/home/ubuntu/EE542_final_project/audioset_v1_embeddings/unbal_train/q1.tfrecord"
        string_val: "/home/ubuntu/EE542_final_project/audioset_v1_embeddings/unbal_train/3X.tfrecord"
        string_val: "/home/ubuntu/EE542_final_project/audioset_v1_embeddings/unbal_train/8s.tfrecord"
        string_val: "/home/ubuntu/EE542_final_project/audioset_v1_embeddings/unbal_train/8H.tfrecord"
        string_val: "/home/ubuntu/EE542_final_project/audioset_v1_embeddings/unbal_train/yB.tfrecord"
        string_val: "/home/ubuntu/EE542_final_project/audioset_v1_embeddings/unbal_train/c1.tfrecord"
        string_val: "/home/ubuntu/EE542_final_project/audioset_v1_embeddings/unbal_train/J9.tfrecord"
        string_val: "/home/ubuntu/EE542_final_project/audioset_v1_embeddings/unbal_train/8a.tfrecord"
        string_val: "/home/ubuntu/EE542_final_project/audioset_v1_embeddings/unbal_train/Vk.tfrecord"
        string_val: "/home/ubuntu/EE542_final_project/audioset_v1_embeddings/unbal_train/eK.tfrecord"
        string_val: "/home/ubuntu/EE542_final_project/audioset_v1_embeddings/unbal_train/3C.tfrecord"
        string_val: "/home/ubuntu/EE542_final_project/audioset_v1_embeddings/unbal_train/n_.tfrecord"
        string_val: "/home/ubuntu/EE542_final_project/audioset_v1_embeddings/unbal_train/6-.tfrecord"
        string_val: "/home/ubuntu/EE542_final_project/audioset_v1_embeddings/unbal_train/XO.tfrecord"
        string_val: "/home/ubuntu/EE542_final_project/audioset_v1_embeddings/unbal_train/P9.tfrecord"
        string_val: "/home/ubuntu/EE542_final_project/audioset_v1_embeddings/unbal_train/m8.tfrecord"
        string_val: "/home/ubuntu/EE542_final_project/audioset_v1_embeddings/unbal_train/SN.tfrecord"
        string_val: "/home/ubuntu/EE542_final_project/audioset_v1_embeddings/unbal_train/So.tfrecord"
        string_val: "/home/ubuntu/EE542_final_project/audioset_v1_embeddings/unbal_train/7_.tfrecord"
        string_val: "/home/ubuntu/EE542_final_project/audioset_v1_embeddings/unbal_train/1B.tfrecord"
        string_val: "/home/ubuntu/EE542_final_project/audioset_v1_embeddings/unbal_train/yh.tfrecord"
        string_val: "/home/ubuntu/EE542_final_project/audioset_v1_embeddings/unbal_train/6U.tfrecord"
        string_val: "/home/ubuntu/EE542_final_project/audioset_v1_embeddings/unbal_train/C_.tfrecord"
        string_val: "/home/ubuntu/EE542_final_project/audioset_v1_embeddings/unbal_train/_e.tfrecord"
        string_val: "/home/ubuntu/EE542_final_project/audioset_v1_embeddings/unbal_train/SS.tfrecord"
        string_val: "/home/ubuntu/EE542_final_project/audioset_v1_embeddings/unbal_train/g-.tfrecord"
        string_val: "/home/ubuntu/EE542_final_project/audioset_v1_embeddings/unbal_train/6D.tfrecord"
        string_val: "/home/ubuntu/EE542_final_project/audioset_v1_embeddings/unbal_train/y_.tfrecord"
        string_val: "/home/ubuntu/EE542_final_project/audioset_v1_embeddings/unbal_train/86.tfrecord"
        string_val: "/home/ubuntu/EE542_final_project/audioset_v1_embeddings/unbal_train/K6.tfrecord"
        string_val: "/home/ubuntu/EE542_final_project/audioset_v1_embeddings/unbal_train/48.tfrecord"
        string_val: "/home/ubuntu/EE542_final_project/audioset_v1_embeddings/unbal_train/_M.tfrecord"
        string_val: "/home/ubuntu/EE542_final_project/audioset_v1_embeddings/unbal_train/5i.tfrecord"
        string_val: "/home/ubuntu/EE542_final_project/audioset_v1_embeddings/unbal_train/Y5.tfrecord"
        string_val: "/home/ubuntu/EE542_final_project/audioset_v1_embeddings/unbal_train/FI.tfrecord"
        string_val: "/home/ubuntu/EE542_final_project/audioset_v1_embeddings/unbal_train/1x.tfrecord"
        string_val: "/home/ubuntu/EE542_final_project/audioset_v1_embeddings/unbal_train/Nv.tfrecord"
        string_val: "/home/ubuntu/EE542_final_project/audioset_v1_embeddings/unbal_train/ts.tfrecord"
        string_val: "/home/ubuntu/EE542_final_project/audioset_v1_embeddings/unbal_train/2-.tfrecord"
        string_val: "/home/ubuntu/EE542_final_project/audioset_v1_embeddings/unbal_train/gx.tfrecord"
        string_val: "/home/ubuntu/EE542_final_project/audioset_v1_embeddings/unbal_train/t5.tfrecord"
        string_val: "/home/ubuntu/EE542_final_project/audioset_v1_embeddings/unbal_train/NG.tfrecord"
        string_val: "/home/ubuntu/EE542_final_project/audioset_v1_embeddings/unbal_train/16.tfrecord"
        string_val: "/home/ubuntu/EE542_final_project/audioset_v1_embeddings/unbal_train/YV.tfrecord"
        string_val: "/home/ubuntu/EE542_final_project/audioset_v1_embeddings/unbal_train/3a.tfrecord"
        string_val: "/home/ubuntu/EE542_final_project/audioset_v1_embeddings/unbal_train/8W.tfrecord"
        string_val: "/home/ubuntu/EE542_final_project/audioset_v1_embeddings/unbal_train/XD.tfrecord"
        string_val: "/home/ubuntu/EE542_final_project/audioset_v1_embeddings/unbal_train/-r.tfrecord"
        string_val: "/home/ubuntu/EE542_final_project/audioset_v1_embeddings/unbal_train/Cj.tfrecord"
        string_val: "/home/ubuntu/EE542_final_project/audioset_v1_embeddings/unbal_train/1g.tfrecord"
        string_val: "/home/ubuntu/EE542_final_project/audioset_v1_embeddings/unbal_train/JB.tfrecord"
        string_val: "/home/ubuntu/EE542_final_project/audioset_v1_embeddings/unbal_train/UR.tfrecord"
        string_val: "/home/ubuntu/EE542_final_project/audioset_v1_embeddings/unbal_train/F8.tfrecord"
        string_val: "/home/ubuntu/EE542_final_project/audioset_v1_embeddings/unbal_train/2h.tfrecord"
        string_val: "/home/ubuntu/EE542_final_project/audioset_v1_embeddings/unbal_train/43.tfrecord"
        string_val: "/home/ubuntu/EE542_final_project/audioset_v1_embeddings/unbal_train/0y.tfrecord"
        string_val: "/home/ubuntu/EE542_final_project/audioset_v1_embeddings/unbal_train/7t.tfrecord"
        string_val: "/home/ubuntu/EE542_final_project/audioset_v1_embeddings/unbal_train/0T.tfrecord"
        string_val: "/home/ubuntu/EE542_final_project/audioset_v1_embeddings/unbal_train/3b.tfrecord"
        string_val: "/home/ubuntu/EE542_final_project/audioset_v1_embeddings/unbal_train/zN.tfrecord"
        string_val: "/home/ubuntu/EE542_final_project/audioset_v1_embeddings/unbal_train/lL.tfrecord"
        string_val: "/home/ubuntu/EE542_final_project/audioset_v1_embeddings/unbal_train/Q7.tfrecord"
        string_val: "/home/ubuntu/EE542_final_project/audioset_v1_embeddings/unbal_train/x9.tfrecord"
        string_val: "/home/ubuntu/EE542_final_project/audioset_v1_embeddings/unbal_train/11.tfrecord"
        string_val: "/home/ubuntu/EE542_final_project/audioset_v1_embeddings/unbal_train/IA.tfrecord"
        string_val: "/home/ubuntu/EE542_final_project/audioset_v1_embeddings/unbal_train/03.tfrecord"
        string_val: "/home/ubuntu/EE542_final_project/audioset_v1_embeddings/unbal_train/ae.tfrecord"
        string_val: "/home/ubuntu/EE542_final_project/audioset_v1_embeddings/unbal_train/q_.tfrecord"
        string_val: "/home/ubuntu/EE542_final_project/audioset_v1_embeddings/unbal_train/A7.tfrecord"
        string_val: "/home/ubuntu/EE542_final_project/audioset_v1_embeddings/unbal_train/LZ.tfrecord"
        string_val: "/home/ubuntu/EE542_final_project/audioset_v1_embeddings/unbal_train/lC.tfrecord"
        string_val: "/home/ubuntu/EE542_final_project/audioset_v1_embeddings/unbal_train/_8.tfrecord"
        string_val: "/home/ubuntu/EE542_final_project/audioset_v1_embeddings/unbal_train/Pa.tfrecord"
        string_val: "/home/ubuntu/EE542_final_project/audioset_v1_embeddings/unbal_train/u4.tfrecord"
        string_val: "/home/ubuntu/EE542_final_project/audioset_v1_embeddings/unbal_train/yx.tfrecord"
        string_val: "/home/ubuntu/EE542_final_project/audioset_v1_embeddings/unbal_train/EJ.tfrecord"
        string_val: "/home/ubuntu/EE542_final_project/audioset_v1_embeddings/unbal_train/7y.tfrecord"
        string_val: "/home/ubuntu/EE542_final_project/audioset_v1_embeddings/unbal_train/7v.tfrecord"
        string_val: "/home/ubuntu/EE542_final_project/audioset_v1_embeddings/unbal_train/U6.tfrecord"
        string_val: "/home/ubuntu/EE542_final_project/audioset_v1_embeddings/unbal_train/eD.tfrecord"
        string_val: "/home/ubuntu/EE542_final_project/audioset_v1_embeddings/unbal_train/H5.tfrecord"
        string_val: "/home/ubuntu/EE542_final_project/audioset_v1_embeddings/unbal_train/B4.tfrecord"
        string_val: "/home/ubuntu/EE542_final_project/audioset_v1_embeddings/unbal_train/o2.tfrecord"
        string_val: "/home/ubuntu/EE542_final_project/audioset_v1_embeddings/unbal_train/N5.tfrecord"
        string_val: "/home/ubuntu/EE542_final_project/audioset_v1_embeddings/unbal_train/46.tfrecord"
        string_val: "/home/ubuntu/EE542_final_project/audioset_v1_embeddings/unbal_train/7h.tfrecord"
        string_val: "/home/ubuntu/EE542_final_project/audioset_v1_embeddings/unbal_train/J5.tfrecord"
        string_val: "/home/ubuntu/EE542_final_project/audioset_v1_embeddings/unbal_train/zs.tfrecord"
        string_val: "/home/ubuntu/EE542_final_project/audioset_v1_embeddings/unbal_train/52.tfrecord"
        string_val: "/home/ubuntu/EE542_final_project/audioset_v1_embeddings/unbal_train/Jw.tfrecord"
        string_val: "/home/ubuntu/EE542_final_project/audioset_v1_embeddings/unbal_train/GE.tfrecord"
        string_val: "/home/ubuntu/EE542_final_project/audioset_v1_embeddings/unbal_train/GV.tfrecord"
        string_val: "/home/ubuntu/EE542_final_project/audioset_v1_embeddings/unbal_train/9s.tfrecord"
        string_val: "/home/ubuntu/EE542_final_project/audioset_v1_embeddings/unbal_train/eh.tfrecord"
        string_val: "/home/ubuntu/EE542_final_project/audioset_v1_embeddings/unbal_train/05.tfrecord"
        string_val: "/home/ubuntu/EE542_final_project/audioset_v1_embeddings/unbal_train/Z7.tfrecord"
        string_val: "/home/ubuntu/EE542_final_project/audioset_v1_embeddings/unbal_train/1T.tfrecord"
        string_val: "/home/ubuntu/EE542_final_project/audioset_v1_embeddings/unbal_train/bW.tfrecord"
        string_val: "/home/ubuntu/EE542_final_project/audioset_v1_embeddings/unbal_train/t0.tfrecord"
        string_val: "/home/ubuntu/EE542_final_project/audioset_v1_embeddings/unbal_train/Ev.tfrecord"
        string_val: "/home/ubuntu/EE542_final_project/audioset_v1_embeddings/unbal_train/Gf.tfrecord"
        string_val: "/home/ubuntu/EE542_final_project/audioset_v1_embeddings/unbal_train/r1.tfrecord"
        string_val: "/home/ubuntu/EE542_final_project/audioset_v1_embeddings/unbal_train/8Y.tfrecord"
        string_val: "/home/ubuntu/EE542_final_project/audioset_v1_embeddings/unbal_train/P-.tfrecord"
        string_val: "/home/ubuntu/EE542_final_project/audioset_v1_embeddings/unbal_train/IP.tfrecord"
        string_val: "/home/ubuntu/EE542_final_project/audioset_v1_embeddings/unbal_train/z-.tfrecord"
        string_val: "/home/ubuntu/EE542_final_project/audioset_v1_embeddings/unbal_train/-C.tfrecord"
        string_val: "/home/ubuntu/EE542_final_project/audioset_v1_embeddings/unbal_train/07.tfrecord"
        string_val: "/home/ubuntu/EE542_final_project/audioset_v1_embeddings/unbal_train/-z.tfrecord"
        string_val: "/home/ubuntu/EE542_final_project/audioset_v1_embeddings/unbal_train/Pl.tfrecord"
        string_val: "/home/ubuntu/EE542_final_project/audioset_v1_embeddings/unbal_train/LQ.tfrecord"
        string_val: "/home/ubuntu/EE542_final_project/audioset_v1_embeddings/unbal_train/Qt.tfrecord"
        string_val: "/home/ubuntu/EE542_final_project/audioset_v1_embeddings/unbal_train/6N.tfrecord"
        string_val: "/home/ubuntu/EE542_final_project/audioset_v1_embeddings/unbal_train/Ob.tfrecord"
        string_val: "/home/ubuntu/EE542_final_project/audioset_v1_embeddings/unbal_train/gj.tfrecord"
        string_val: "/home/ubuntu/EE542_final_project/audioset_v1_embeddings/unbal_train/oY.tfrecord"
        string_val: "/home/ubuntu/EE542_final_project/audioset_v1_embeddings/unbal_train/Ch.tfrecord"
        string_val: "/home/ubuntu/EE542_final_project/audioset_v1_embeddings/unbal_train/ah.tfrecord"
        string_val: "/home/ubuntu/EE542_final_project/audioset_v1_embeddings/unbal_train/0U.tfrecord"
        string_val: "/home/ubuntu/EE542_final_project/audioset_v1_embeddings/unbal_train/fm.tfrecord"
        string_val: "/home/ubuntu/EE542_final_project/audioset_v1_embeddings/unbal_train/O_.tfrecord"
        string_val: "/home/ubuntu/EE542_final_project/audioset_v1_embeddings/unbal_train/FV.tfrecord"
        string_val: "/home/ubuntu/EE542_final_project/audioset_v1_embeddings/unbal_train/OJ.tfrecord"
        string_val: "/home/ubuntu/EE542_final_project/audioset_v1_embeddings/unbal_train/Kt.tfrecord"
        string_val: "/home/ubuntu/EE542_final_project/audioset_v1_embeddings/unbal_train/5s.tfrecord"
        string_val: "/home/ubuntu/EE542_final_project/audioset_v1_embeddings/unbal_train/hO.tfrecord"
        string_val: "/home/ubuntu/EE542_final_project/audioset_v1_embeddings/unbal_train/Xb.tfrecord"
        string_val: "/home/ubuntu/EE542_final_project/audioset_v1_embeddings/unbal_train/d9.tfrecord"
        string_val: "/home/ubuntu/EE542_final_project/audioset_v1_embeddings/unbal_train/dm.tfrecord"
        string_val: "/home/ubuntu/EE542_final_project/audioset_v1_embeddings/unbal_train/Gp.tfrecord"
        string_val: "/home/ubuntu/EE542_final_project/audioset_v1_embeddings/unbal_train/0g.tfrecord"
        string_val: "/home/ubuntu/EE542_final_project/audioset_v1_embeddings/unbal_train/GI.tfrecord"
        string_val: "/home/ubuntu/EE542_final_project/audioset_v1_embeddings/unbal_train/Zx.tfrecord"
        string_val: "/home/ubuntu/EE542_final_project/audioset_v1_embeddings/unbal_train/E6.tfrecord"
        string_val: "/home/ubuntu/EE542_final_project/audioset_v1_embeddings/unbal_train/fE.tfrecord"
        string_val: "/home/ubuntu/EE542_final_project/audioset_v1_embeddings/unbal_train/S2.tfrecord"
        string_val: "/home/ubuntu/EE542_final_project/audioset_v1_embeddings/unbal_train/6I.tfrecord"
        string_val: "/home/ubuntu/EE542_final_project/audioset_v1_embeddings/unbal_train/No.tfrecord"
        string_val: "/home/ubuntu/EE542_final_project/audioset_v1_embeddings/unbal_train/oU.tfrecord"
        string_val: "/home/ubuntu/EE542_final_project/audioset_v1_embeddings/unbal_train/S6.tfrecord"
        string_val: "/home/ubuntu/EE542_final_project/audioset_v1_embeddings/unbal_train/gC.tfrecord"
        string_val: "/home/ubuntu/EE542_final_project/audioset_v1_embeddings/unbal_train/6w.tfrecord"
        string_val: "/home/ubuntu/EE542_final_project/audioset_v1_embeddings/unbal_train/F9.tfrecord"
        string_val: "/home/ubuntu/EE542_final_project/audioset_v1_embeddings/unbal_train/Mx.tfrecord"
        string_val: "/home/ubuntu/EE542_final_project/audioset_v1_embeddings/unbal_train/0Z.tfrecord"
        string_val: "/home/ubuntu/EE542_final_project/audioset_v1_embeddings/unbal_train/g0.tfrecord"
        string_val: "/home/ubuntu/EE542_final_project/audioset_v1_embeddings/unbal_train/Nm.tfrecord"
        string_val: "/home/ubuntu/EE542_final_project/audioset_v1_embeddings/unbal_train/CV.tfrecord"
        string_val: "/home/ubuntu/EE542_final_project/audioset_v1_embeddings/unbal_train/9e.tfrecord"
        string_val: "/home/ubuntu/EE542_final_project/audioset_v1_embeddings/unbal_train/99.tfrecord"
        string_val: "/home/ubuntu/EE542_final_project/audioset_v1_embeddings/unbal_train/SU.tfrecord"
        string_val: "/home/ubuntu/EE542_final_project/audioset_v1_embeddings/unbal_train/Wx.tfrecord"
        string_val: "/home/ubuntu/EE542_final_project/audioset_v1_embeddings/unbal_train/zu.tfrecord"
        string_val: "/home/ubuntu/EE542_final_project/audioset_v1_embeddings/unbal_train/29.tfrecord"
        string_val: "/home/ubuntu/EE542_final_project/audioset_v1_embeddings/unbal_train/ja.tfrecord"
        string_val: "/home/ubuntu/EE542_final_project/audioset_v1_embeddings/unbal_train/mz.tfrecord"
        string_val: "/home/ubuntu/EE542_final_project/audioset_v1_embeddings/unbal_train/70.tfrecord"
        string_val: "/home/ubuntu/EE542_final_project/audioset_v1_embeddings/unbal_train/P2.tfrecord"
        string_val: "/home/ubuntu/EE542_final_project/audioset_v1_embeddings/unbal_train/8V.tfrecord"
        string_val: "/home/ubuntu/EE542_final_project/audioset_v1_embeddings/unbal_train/3k.tfrecord"
        string_val: "/home/ubuntu/EE542_final_project/audioset_v1_embeddings/unbal_train/qI.tfrecord"
        string_val: "/home/ubuntu/EE542_final_project/audioset_v1_embeddings/unbal_train/XV.tfrecord"
        string_val: "/home/ubuntu/EE542_final_project/audioset_v1_embeddings/unbal_train/E9.tfrecord"
        string_val: "/home/ubuntu/EE542_final_project/audioset_v1_embeddings/unbal_train/gD.tfrecord"
        string_val: "/home/ubuntu/EE542_final_project/audioset_v1_embeddings/unbal_train/71.tfrecord"
        string_val: "/home/ubuntu/EE542_final_project/audioset_v1_embeddings/unbal_train/4S.tfrecord"
        string_val: "/home/ubuntu/EE542_final_project/audioset_v1_embeddings/unbal_train/uC.tfrecord"
        string_val: "/home/ubuntu/EE542_final_project/audioset_v1_embeddings/unbal_train/iI.tfrecord"
        string_val: "/home/ubuntu/EE542_final_project/audioset_v1_embeddings/unbal_train/N6.tfrecord"
        string_val: "/home/ubuntu/EE542_final_project/audioset_v1_embeddings/unbal_train/0J.tfrecord"
        string_val: "/home/ubuntu/EE542_final_project/audioset_v1_embeddings/unbal_train/Z5.tfrecord"
        string_val: "/home/ubuntu/EE542_final_project/audioset_v1_embeddings/unbal_train/Kl.tfrecord"
        string_val: "/home/ubuntu/EE542_final_project/audioset_v1_embeddings/unbal_train/z4.tfrecord"
        string_val: "/home/ubuntu/EE542_final_project/audioset_v1_embeddings/unbal_train/Q5.tfrecord"
        string_val: "/home/ubuntu/EE542_final_project/audioset_v1_embeddings/unbal_train/EE.tfrecord"
        string_val: "/home/ubuntu/EE542_final_project/audioset_v1_embeddings/unbal_train/Xa.tfrecord"
        string_val: "/home/ubuntu/EE542_final_project/audioset_v1_embeddings/unbal_train/kn.tfrecord"
        string_val: "/home/ubuntu/EE542_final_project/audioset_v1_embeddings/unbal_train/FU.tfrecord"
        string_val: "/home/ubuntu/EE542_final_project/audioset_v1_embeddings/unbal_train/82.tfrecord"
        string_val: "/home/ubuntu/EE542_final_project/audioset_v1_embeddings/unbal_train/4U.tfrecord"
        string_val: "/home/ubuntu/EE542_final_project/audioset_v1_embeddings/unbal_train/-I.tfrecord"
        string_val: "/home/ubuntu/EE542_final_project/audioset_v1_embeddings/unbal_train/bU.tfrecord"
        string_val: "/home/ubuntu/EE542_final_project/audioset_v1_embeddings/unbal_train/gg.tfrecord"
        string_val: "/home/ubuntu/EE542_final_project/audioset_v1_embeddings/unbal_train/IE.tfrecord"
        string_val: "/home/ubuntu/EE542_final_project/audioset_v1_embeddings/unbal_train/Au.tfrecord"
        string_val: "/home/ubuntu/EE542_final_project/audioset_v1_embeddings/unbal_train/k3.tfrecord"
        string_val: "/home/ubuntu/EE542_final_project/audioset_v1_embeddings/unbal_train/LB.tfrecord"
        string_val: "/home/ubuntu/EE542_final_project/audioset_v1_embeddings/unbal_train/S3.tfrecord"
        string_val: "/home/ubuntu/EE542_final_project/audioset_v1_embeddings/unbal_train/io.tfrecord"
        string_val: "/home/ubuntu/EE542_final_project/audioset_v1_embeddings/unbal_train/Sc.tfrecord"
        string_val: "/home/ubuntu/EE542_final_project/audioset_v1_embeddings/unbal_train/Sy.tfrecord"
        string_val: "/home/ubuntu/EE542_final_project/audioset_v1_embeddings/unbal_train/Ue.tfrecord"
        string_val: "/home/ubuntu/EE542_final_project/audioset_v1_embeddings/unbal_train/-W.tfrecord"
        string_val: "/home/ubuntu/EE542_final_project/audioset_v1_embeddings/unbal_train/6G.tfrecord"
        string_val: "/home/ubuntu/EE542_final_project/audioset_v1_embeddings/unbal_train/2k.tfrecord"
        string_val: "/home/ubuntu/EE542_final_project/audioset_v1_embeddings/unbal_train/3e.tfrecord"
        string_val: "/home/ubuntu/EE542_final_project/audioset_v1_embeddings/unbal_train/B7.tfrecord"
        string_val: "/home/ubuntu/EE542_final_project/audioset_v1_embeddings/unbal_train/6a.tfrecord"
        string_val: "/home/ubuntu/EE542_final_project/audioset_v1_embeddings/unbal_train/j_.tfrecord"
        string_val: "/home/ubuntu/EE542_final_project/audioset_v1_embeddings/unbal_train/Rt.tfrecord"
        string_val: "/home/ubuntu/EE542_final_project/audioset_v1_embeddings/unbal_train/B5.tfrecord"
        string_val: "/home/ubuntu/EE542_final_project/audioset_v1_embeddings/unbal_train/OL.tfrecord"
        string_val: "/home/ubuntu/EE542_final_project/audioset_v1_embeddings/unbal_train/-n.tfrecord"
        string_val: "/home/ubuntu/EE542_final_project/audioset_v1_embeddings/unbal_train/RR.tfrecord"
        string_val: "/home/ubuntu/EE542_final_project/audioset_v1_embeddings/unbal_train/hC.tfrecord"
        string_val: "/home/ubuntu/EE542_final_project/audioset_v1_embeddings/unbal_train/Q4.tfrecord"
        string_val: "/home/ubuntu/EE542_final_project/audioset_v1_embeddings/unbal_train/3w.tfrecord"
        string_val: "/home/ubuntu/EE542_final_project/audioset_v1_embeddings/unbal_train/YU.tfrecord"
        string_val: "/home/ubuntu/EE542_final_project/audioset_v1_embeddings/unbal_train/YI.tfrecord"
        string_val: "/home/ubuntu/EE542_final_project/audioset_v1_embeddings/unbal_train/bE.tfrecord"
        string_val: "/home/ubuntu/EE542_final_project/audioset_v1_embeddings/unbal_train/u_.tfrecord"
        string_val: "/home/ubuntu/EE542_final_project/audioset_v1_embeddings/unbal_train/Vn.tfrecord"
        string_val: "/home/ubuntu/EE542_final_project/audioset_v1_embeddings/unbal_train/TI.tfrecord"
        string_val: "/home/ubuntu/EE542_final_project/audioset_v1_embeddings/unbal_train/4r.tfrecord"
        string_val: "/home/ubuntu/EE542_final_project/audioset_v1_embeddings/unbal_train/va.tfrecord"
        string_val: "/home/ubuntu/EE542_final_project/audioset_v1_embeddings/unbal_train/3m.tfrecord"
        string_val: "/home/ubuntu/EE542_final_project/audioset_v1_embeddings/unbal_train/Na.tfrecord"
        string_val: "/home/ubuntu/EE542_final_project/audioset_v1_embeddings/unbal_train/6c.tfrecord"
        string_val: "/home/ubuntu/EE542_final_project/audioset_v1_embeddings/unbal_train/iD.tfrecord"
        string_val: "/home/ubuntu/EE542_final_project/audioset_v1_embeddings/unbal_train/ST.tfrecord"
        string_val: "/home/ubuntu/EE542_final_project/audioset_v1_embeddings/unbal_train/Ot.tfrecord"
        string_val: "/home/ubuntu/EE542_final_project/audioset_v1_embeddings/unbal_train/B8.tfrecord"
        string_val: "/home/ubuntu/EE542_final_project/audioset_v1_embeddings/unbal_train/5X.tfrecord"
        string_val: "/home/ubuntu/EE542_final_project/audioset_v1_embeddings/unbal_train/8G.tfrecord"
        string_val: "/home/ubuntu/EE542_final_project/audioset_v1_embeddings/unbal_train/2L.tfrecord"
        string_val: "/home/ubuntu/EE542_final_project/audioset_v1_embeddings/unbal_train/bn.tfrecord"
        string_val: "/home/ubuntu/EE542_final_project/audioset_v1_embeddings/unbal_train/E-.tfrecord"
        string_val: "/home/ubuntu/EE542_final_project/audioset_v1_embeddings/unbal_train/9j.tfrecord"
        string_val: "/home/ubuntu/EE542_final_project/audioset_v1_embeddings/unbal_train/rI.tfrecord"
        string_val: "/home/ubuntu/EE542_final_project/audioset_v1_embeddings/unbal_train/9y.tfrecord"
        string_val: "/home/ubuntu/EE542_final_project/audioset_v1_embeddings/unbal_train/HS.tfrecord"
        string_val: "/home/ubuntu/EE542_final_project/audioset_v1_embeddings/unbal_train/hi.tfrecord"
        string_val: "/home/ubuntu/EE542_final_project/audioset_v1_embeddings/unbal_train/B0.tfrecord"
        string_val: "/home/ubuntu/EE542_final_project/audioset_v1_embeddings/unbal_train/A-.tfrecord"
        string_val: "/home/ubuntu/EE542_final_project/audioset_v1_embeddings/unbal_train/k-.tfrecord"
        string_val: "/home/ubuntu/EE542_final_project/audioset_v1_embeddings/unbal_train/1p.tfrecord"
        string_val: "/home/ubuntu/EE542_final_project/audioset_v1_embeddings/unbal_train/2f.tfrecord"
        string_val: "/home/ubuntu/EE542_final_project/audioset_v1_embeddings/unbal_train/3T.tfrecord"
        string_val: "/home/ubuntu/EE542_final_project/audioset_v1_embeddings/unbal_train/2x.tfrecord"
        string_val: "/home/ubuntu/EE542_final_project/audioset_v1_embeddings/unbal_train/mm.tfrecord"
        string_val: "/home/ubuntu/EE542_final_project/audioset_v1_embeddings/unbal_train/8o.tfrecord"
        string_val: "/home/ubuntu/EE542_final_project/audioset_v1_embeddings/unbal_train/V0.tfrecord"
        string_val: "/home/ubuntu/EE542_final_project/audioset_v1_embeddings/unbal_train/E5.tfrecord"
        string_val: "/home/ubuntu/EE542_final_project/audioset_v1_embeddings/unbal_train/Vi.tfrecord"
        string_val: "/home/ubuntu/EE542_final_project/audioset_v1_embeddings/unbal_train/CY.tfrecord"
        string_val: "/home/ubuntu/EE542_final_project/audioset_v1_embeddings/unbal_train/ns.tfrecord"
        string_val: "/home/ubuntu/EE542_final_project/audioset_v1_embeddings/unbal_train/n-.tfrecord"
        string_val: "/home/ubuntu/EE542_final_project/audioset_v1_embeddings/unbal_train/Tu.tfrecord"
        string_val: "/home/ubuntu/EE542_final_project/audioset_v1_embeddings/unbal_train/FN.tfrecord"
        string_val: "/home/ubuntu/EE542_final_project/audioset_v1_embeddings/unbal_train/jT.tfrecord"
        string_val: "/home/ubuntu/EE542_final_project/audioset_v1_embeddings/unbal_train/5K.tfrecord"
        string_val: "/home/ubuntu/EE542_final_project/audioset_v1_embeddings/unbal_train/_D.tfrecord"
        string_val: "/home/ubuntu/EE542_final_project/audioset_v1_embeddings/unbal_train/37.tfrecord"
        string_val: "/home/ubuntu/EE542_final_project/audioset_v1_embeddings/unbal_train/Y0.tfrecord"
        string_val: "/home/ubuntu/EE542_final_project/audioset_v1_embeddings/unbal_train/Jo.tfrecord"
        string_val: "/home/ubuntu/EE542_final_project/audioset_v1_embeddings/unbal_train/5A.tfrecord"
        string_val: "/home/ubuntu/EE542_final_project/audioset_v1_embeddings/unbal_train/8_.tfrecord"
        string_val: "/home/ubuntu/EE542_final_project/audioset_v1_embeddings/unbal_train/3-.tfrecord"
        string_val: "/home/ubuntu/EE542_final_project/audioset_v1_embeddings/unbal_train/FK.tfrecord"
        string_val: "/home/ubuntu/EE542_final_project/audioset_v1_embeddings/unbal_train/RS.tfrecord"
        string_val: "/home/ubuntu/EE542_final_project/audioset_v1_embeddings/unbal_train/L2.tfrecord"
        string_val: "/home/ubuntu/EE542_final_project/audioset_v1_embeddings/unbal_train/Tt.tfrecord"
        string_val: "/home/ubuntu/EE542_final_project/audioset_v1_embeddings/unbal_train/EU.tfrecord"
        string_val: "/home/ubuntu/EE542_final_project/audioset_v1_embeddings/unbal_train/hF.tfrecord"
        string_val: "/home/ubuntu/EE542_final_project/audioset_v1_embeddings/unbal_train/x7.tfrecord"
        string_val: "/home/ubuntu/EE542_final_project/audioset_v1_embeddings/unbal_train/Ui.tfrecord"
        string_val: "/home/ubuntu/EE542_final_project/audioset_v1_embeddings/unbal_train/74.tfrecord"
        string_val: "/home/ubuntu/EE542_final_project/audioset_v1_embeddings/unbal_train/Q6.tfrecord"
        string_val: "/home/ubuntu/EE542_final_project/audioset_v1_embeddings/unbal_train/aV.tfrecord"
        string_val: "/home/ubuntu/EE542_final_project/audioset_v1_embeddings/unbal_train/5M.tfrecord"
        string_val: "/home/ubuntu/EE542_final_project/audioset_v1_embeddings/unbal_train/q2.tfrecord"
        string_val: "/home/ubuntu/EE542_final_project/audioset_v1_embeddings/unbal_train/62.tfrecord"
        string_val: "/home/ubuntu/EE542_final_project/audioset_v1_embeddings/unbal_train/_6.tfrecord"
        string_val: "/home/ubuntu/EE542_final_project/audioset_v1_embeddings/unbal_train/TZ.tfrecord"
        string_val: "/home/ubuntu/EE542_final_project/audioset_v1_embeddings/unbal_train/Zw.tfrecord"
        string_val: "/home/ubuntu/EE542_final_project/audioset_v1_embeddings/unbal_train/sM.tfrecord"
        string_val: "/home/ubuntu/EE542_final_project/audioset_v1_embeddings/unbal_train/C4.tfrecord"
        string_val: "/home/ubuntu/EE542_final_project/audioset_v1_embeddings/unbal_train/4p.tfrecord"
        string_val: "/home/ubuntu/EE542_final_project/audioset_v1_embeddings/unbal_train/6l.tfrecord"
        string_val: "/home/ubuntu/EE542_final_project/audioset_v1_embeddings/unbal_train/1L.tfrecord"
        string_val: "/home/ubuntu/EE542_final_project/audioset_v1_embeddings/unbal_train/23.tfrecord"
        string_val: "/home/ubuntu/EE542_final_project/audioset_v1_embeddings/unbal_train/_2.tfrecord"
        string_val: "/home/ubuntu/EE542_final_project/audioset_v1_embeddings/unbal_train/72.tfrecord"
        string_val: "/home/ubuntu/EE542_final_project/audioset_v1_embeddings/unbal_train/xx.tfrecord"
        string_val: "/home/ubuntu/EE542_final_project/audioset_v1_embeddings/unbal_train/XW.tfrecord"
        string_val: "/home/ubuntu/EE542_final_project/audioset_v1_embeddings/unbal_train/01.tfrecord"
        string_val: "/home/ubuntu/EE542_final_project/audioset_v1_embeddings/unbal_train/5d.tfrecord"
        string_val: "/home/ubuntu/EE542_final_project/audioset_v1_embeddings/unbal_train/5G.tfrecord"
        string_val: "/home/ubuntu/EE542_final_project/audioset_v1_embeddings/unbal_train/tN.tfrecord"
        string_val: "/home/ubuntu/EE542_final_project/audioset_v1_embeddings/unbal_train/EC.tfrecord"
        string_val: "/home/ubuntu/EE542_final_project/audioset_v1_embeddings/unbal_train/s5.tfrecord"
        string_val: "/home/ubuntu/EE542_final_project/audioset_v1_embeddings/unbal_train/6f.tfrecord"
        string_val: "/home/ubuntu/EE542_final_project/audioset_v1_embeddings/unbal_train/_T.tfrecord"
        string_val: "/home/ubuntu/EE542_final_project/audioset_v1_embeddings/unbal_train/qj.tfrecord"
        string_val: "/home/ubuntu/EE542_final_project/audioset_v1_embeddings/unbal_train/1i.tfrecord"
        string_val: "/home/ubuntu/EE542_final_project/audioset_v1_embeddings/unbal_train/15.tfrecord"
        string_val: "/home/ubuntu/EE542_final_project/audioset_v1_embeddings/unbal_train/zH.tfrecord"
        string_val: "/home/ubuntu/EE542_final_project/audioset_v1_embeddings/unbal_train/5p.tfrecord"
        string_val: "/home/ubuntu/EE542_final_project/audioset_v1_embeddings/unbal_train/IL.tfrecord"
        string_val: "/home/ubuntu/EE542_final_project/audioset_v1_embeddings/unbal_train/69.tfrecord"
        string_val: "/home/ubuntu/EE542_final_project/audioset_v1_embeddings/unbal_train/wf.tfrecord"
        string_val: "/home/ubuntu/EE542_final_project/audioset_v1_embeddings/unbal_train/YD.tfrecord"
        string_val: "/home/ubuntu/EE542_final_project/audioset_v1_embeddings/unbal_train/0d.tfrecord"
        string_val: "/home/ubuntu/EE542_final_project/audioset_v1_embeddings/unbal_train/57.tfrecord"
        string_val: "/home/ubuntu/EE542_final_project/audioset_v1_embeddings/unbal_train/xH.tfrecord"
        string_val: "/home/ubuntu/EE542_final_project/audioset_v1_embeddings/unbal_train/Ih.tfrecord"
        string_val: "/home/ubuntu/EE542_final_project/audioset_v1_embeddings/unbal_train/9p.tfrecord"
        string_val: "/home/ubuntu/EE542_final_project/audioset_v1_embeddings/unbal_train/nB.tfrecord"
        string_val: "/home/ubuntu/EE542_final_project/audioset_v1_embeddings/unbal_train/H0.tfrecord"
        string_val: "/home/ubuntu/EE542_final_project/audioset_v1_embeddings/unbal_train/YT.tfrecord"
        string_val: "/home/ubuntu/EE542_final_project/audioset_v1_embeddings/unbal_train/9C.tfrecord"
        string_val: "/home/ubuntu/EE542_final_project/audioset_v1_embeddings/unbal_train/YP.tfrecord"
        string_val: "/home/ubuntu/EE542_final_project/audioset_v1_embeddings/unbal_train/IK.tfrecord"
        string_val: "/home/ubuntu/EE542_final_project/audioset_v1_embeddings/unbal_train/y-.tfrecord"
        string_val: "/home/ubuntu/EE542_final_project/audioset_v1_embeddings/unbal_train/mb.tfrecord"
        string_val: "/home/ubuntu/EE542_final_project/audioset_v1_embeddings/unbal_train/T9.tfrecord"
        string_val: "/home/ubuntu/EE542_final_project/audioset_v1_embeddings/unbal_train/5H.tfrecord"
        string_val: "/home/ubuntu/EE542_final_project/audioset_v1_embeddings/unbal_train/f7.tfrecord"
        string_val: "/home/ubuntu/EE542_final_project/audioset_v1_embeddings/unbal_train/f2.tfrecord"
        string_val: "/home/ubuntu/EE542_final_project/audioset_v1_embeddings/unbal_train/Of.tfrecord"
        string_val: "/home/ubuntu/EE542_final_project/audioset_v1_embeddings/unbal_train/vW.tfrecord"
        string_val: "/home/ubuntu/EE542_final_project/audioset_v1_embeddings/unbal_train/LG.tfrecord"
        string_val: "/home/ubuntu/EE542_final_project/audioset_v1_embeddings/unbal_train/1-.tfrecord"
        string_val: "/home/ubuntu/EE542_final_project/audioset_v1_embeddings/unbal_train/45.tfrecord"
        string_val: "/home/ubuntu/EE542_final_project/audioset_v1_embeddings/unbal_train/Pt.tfrecord"
        string_val: "/home/ubuntu/EE542_final_project/audioset_v1_embeddings/unbal_train/v9.tfrecord"
        string_val: "/home/ubuntu/EE542_final_project/audioset_v1_embeddings/unbal_train/om.tfrecord"
        string_val: "/home/ubuntu/EE542_final_project/audioset_v1_embeddings/unbal_train/8M.tfrecord"
        string_val: "/home/ubuntu/EE542_final_project/audioset_v1_embeddings/unbal_train/rK.tfrecord"
        string_val: "/home/ubuntu/EE542_final_project/audioset_v1_embeddings/unbal_train/mr.tfrecord"
        string_val: "/home/ubuntu/EE542_final_project/audioset_v1_embeddings/unbal_train/RO.tfrecord"
        string_val: "/home/ubuntu/EE542_final_project/audioset_v1_embeddings/unbal_train/aC.tfrecord"
        string_val: "/home/ubuntu/EE542_final_project/audioset_v1_embeddings/unbal_train/Zl.tfrecord"
        string_val: "/home/ubuntu/EE542_final_project/audioset_v1_embeddings/unbal_train/Hx.tfrecord"
        string_val: "/home/ubuntu/EE542_final_project/audioset_v1_embeddings/unbal_train/sB.tfrecord"
        string_val: "/home/ubuntu/EE542_final_project/audioset_v1_embeddings/unbal_train/J8.tfrecord"
        string_val: "/home/ubuntu/EE542_final_project/audioset_v1_embeddings/unbal_train/Zo.tfrecord"
        string_val: "/home/ubuntu/EE542_final_project/audioset_v1_embeddings/unbal_train/X8.tfrecord"
        string_val: "/home/ubuntu/EE542_final_project/audioset_v1_embeddings/unbal_train/5_.tfrecord"
        string_val: "/home/ubuntu/EE542_final_project/audioset_v1_embeddings/unbal_train/Ux.tfrecord"
        string_val: "/home/ubuntu/EE542_final_project/audioset_v1_embeddings/unbal_train/-g.tfrecord"
        string_val: "/home/ubuntu/EE542_final_project/audioset_v1_embeddings/unbal_train/pf.tfrecord"
        string_val: "/home/ubuntu/EE542_final_project/audioset_v1_embeddings/unbal_train/4M.tfrecord"
        string_val: "/home/ubuntu/EE542_final_project/audioset_v1_embeddings/unbal_train/_0.tfrecord"
        string_val: "/home/ubuntu/EE542_final_project/audioset_v1_embeddings/unbal_train/f-.tfrecord"
        string_val: "/home/ubuntu/EE542_final_project/audioset_v1_embeddings/unbal_train/ln.tfrecord"
        string_val: "/home/ubuntu/EE542_final_project/audioset_v1_embeddings/unbal_train/s_.tfrecord"
        string_val: "/home/ubuntu/EE542_final_project/audioset_v1_embeddings/unbal_train/77.tfrecord"
        string_val: "/home/ubuntu/EE542_final_project/audioset_v1_embeddings/unbal_train/zJ.tfrecord"
        string_val: "/home/ubuntu/EE542_final_project/audioset_v1_embeddings/unbal_train/44.tfrecord"
        string_val: "/home/ubuntu/EE542_final_project/audioset_v1_embeddings/unbal_train/7r.tfrecord"
        string_val: "/home/ubuntu/EE542_final_project/audioset_v1_embeddings/unbal_train/4I.tfrecord"
        string_val: "/home/ubuntu/EE542_final_project/audioset_v1_embeddings/unbal_train/xy.tfrecord"
        string_val: "/home/ubuntu/EE542_final_project/audioset_v1_embeddings/unbal_train/hP.tfrecord"
        string_val: "/home/ubuntu/EE542_final_project/audioset_v1_embeddings/unbal_train/V7.tfrecord"
        string_val: "/home/ubuntu/EE542_final_project/audioset_v1_embeddings/unbal_train/w7.tfrecord"
        string_val: "/home/ubuntu/EE542_final_project/audioset_v1_embeddings/unbal_train/Sp.tfrecord"
        string_val: "/home/ubuntu/EE542_final_project/audioset_v1_embeddings/unbal_train/2w.tfrecord"
        string_val: "/home/ubuntu/EE542_final_project/audioset_v1_embeddings/unbal_train/CC.tfrecord"
        string_val: "/home/ubuntu/EE542_final_project/audioset_v1_embeddings/unbal_train/bx.tfrecord"
        string_val: "/home/ubuntu/EE542_final_project/audioset_v1_embeddings/unbal_train/tO.tfrecord"
        string_val: "/home/ubuntu/EE542_final_project/audioset_v1_embeddings/unbal_train/Yq.tfrecord"
        string_val: "/home/ubuntu/EE542_final_project/audioset_v1_embeddings/unbal_train/-f.tfrecord"
        string_val: "/home/ubuntu/EE542_final_project/audioset_v1_embeddings/unbal_train/WW.tfrecord"
        string_val: "/home/ubuntu/EE542_final_project/audioset_v1_embeddings/unbal_train/5Y.tfrecord"
        string_val: "/home/ubuntu/EE542_final_project/audioset_v1_embeddings/unbal_train/6T.tfrecord"
        string_val: "/home/ubuntu/EE542_final_project/audioset_v1_embeddings/unbal_train/L6.tfrecord"
        string_val: "/home/ubuntu/EE542_final_project/audioset_v1_embeddings/unbal_train/VP.tfrecord"
        string_val: "/home/ubuntu/EE542_final_project/audioset_v1_embeddings/unbal_train/e1.tfrecord"
        string_val: "/home/ubuntu/EE542_final_project/audioset_v1_embeddings/unbal_train/es.tfrecord"
        string_val: "/home/ubuntu/EE542_final_project/audioset_v1_embeddings/unbal_train/k2.tfrecord"
        string_val: "/home/ubuntu/EE542_final_project/audioset_v1_embeddings/unbal_train/Ic.tfrecord"
        string_val: "/home/ubuntu/EE542_final_project/audioset_v1_embeddings/unbal_train/r8.tfrecord"
        string_val: "/home/ubuntu/EE542_final_project/audioset_v1_embeddings/unbal_train/3i.tfrecord"
        string_val: "/home/ubuntu/EE542_final_project/audioset_v1_embeddings/unbal_train/18.tfrecord"
        string_val: "/home/ubuntu/EE542_final_project/audioset_v1_embeddings/unbal_train/I6.tfrecord"
        string_val: "/home/ubuntu/EE542_final_project/audioset_v1_embeddings/unbal_train/-J.tfrecord"
        string_val: "/home/ubuntu/EE542_final_project/audioset_v1_embeddings/unbal_train/XZ.tfrecord"
        string_val: "/home/ubuntu/EE542_final_project/audioset_v1_embeddings/unbal_train/pJ.tfrecord"
        string_val: "/home/ubuntu/EE542_final_project/audioset_v1_embeddings/unbal_train/Z6.tfrecord"
        string_val: "/home/ubuntu/EE542_final_project/audioset_v1_embeddings/unbal_train/76.tfrecord"
        string_val: "/home/ubuntu/EE542_final_project/audioset_v1_embeddings/unbal_train/E_.tfrecord"
        string_val: "/home/ubuntu/EE542_final_project/audioset_v1_embeddings/unbal_train/D-.tfrecord"
        string_val: "/home/ubuntu/EE542_final_project/audioset_v1_embeddings/unbal_train/sq.tfrecord"
        string_val: "/home/ubuntu/EE542_final_project/audioset_v1_embeddings/unbal_train/y2.tfrecord"
        string_val: "/home/ubuntu/EE542_final_project/audioset_v1_embeddings/unbal_train/ub.tfrecord"
        string_val: "/home/ubuntu/EE542_final_project/audioset_v1_embeddings/unbal_train/61.tfrecord"
        string_val: "/home/ubuntu/EE542_final_project/audioset_v1_embeddings/unbal_train/O7.tfrecord"
        string_val: "/home/ubuntu/EE542_final_project/audioset_v1_embeddings/unbal_train/sF.tfrecord"
        string_val: "/home/ubuntu/EE542_final_project/audioset_v1_embeddings/unbal_train/VF.tfrecord"
        string_val: "/home/ubuntu/EE542_final_project/audioset_v1_embeddings/unbal_train/DV.tfrecord"
        string_val: "/home/ubuntu/EE542_final_project/audioset_v1_embeddings/unbal_train/2Z.tfrecord"
        string_val: "/home/ubuntu/EE542_final_project/audioset_v1_embeddings/unbal_train/zE.tfrecord"
        string_val: "/home/ubuntu/EE542_final_project/audioset_v1_embeddings/unbal_train/_W.tfrecord"
        string_val: "/home/ubuntu/EE542_final_project/audioset_v1_embeddings/unbal_train/Sw.tfrecord"
        string_val: "/home/ubuntu/EE542_final_project/audioset_v1_embeddings/unbal_train/7g.tfrecord"
        string_val: "/home/ubuntu/EE542_final_project/audioset_v1_embeddings/unbal_train/1U.tfrecord"
        string_val: "/home/ubuntu/EE542_final_project/audioset_v1_embeddings/unbal_train/Bv.tfrecord"
        string_val: "/home/ubuntu/EE542_final_project/audioset_v1_embeddings/unbal_train/_H.tfrecord"
        string_val: "/home/ubuntu/EE542_final_project/audioset_v1_embeddings/unbal_train/I7.tfrecord"
        string_val: "/home/ubuntu/EE542_final_project/audioset_v1_embeddings/unbal_train/91.tfrecord"
        string_val: "/home/ubuntu/EE542_final_project/audioset_v1_embeddings/unbal_train/Nd.tfrecord"
        string_val: "/home/ubuntu/EE542_final_project/audioset_v1_embeddings/unbal_train/Lu.tfrecord"
        string_val: "/home/ubuntu/EE542_final_project/audioset_v1_embeddings/unbal_train/0P.tfrecord"
        string_val: "/home/ubuntu/EE542_final_project/audioset_v1_embeddings/unbal_train/pn.tfrecord"
        string_val: "/home/ubuntu/EE542_final_project/audioset_v1_embeddings/unbal_train/Rh.tfrecord"
        string_val: "/home/ubuntu/EE542_final_project/audioset_v1_embeddings/unbal_train/GR.tfrecord"
        string_val: "/home/ubuntu/EE542_final_project/audioset_v1_embeddings/unbal_train/87.tfrecord"
        string_val: "/home/ubuntu/EE542_final_project/audioset_v1_embeddings/unbal_train/7m.tfrecord"
        string_val: "/home/ubuntu/EE542_final_project/audioset_v1_embeddings/unbal_train/-1.tfrecord"
        string_val: "/home/ubuntu/EE542_final_project/audioset_v1_embeddings/unbal_train/Tk.tfrecord"
        string_val: "/home/ubuntu/EE542_final_project/audioset_v1_embeddings/unbal_train/3v.tfrecord"
        string_val: "/home/ubuntu/EE542_final_project/audioset_v1_embeddings/unbal_train/Uj.tfrecord"
        string_val: "/home/ubuntu/EE542_final_project/audioset_v1_embeddings/unbal_train/qA.tfrecord"
        string_val: "/home/ubuntu/EE542_final_project/audioset_v1_embeddings/unbal_train/Se.tfrecord"
        string_val: "/home/ubuntu/EE542_final_project/audioset_v1_embeddings/unbal_train/oW.tfrecord"
        string_val: "/home/ubuntu/EE542_final_project/audioset_v1_embeddings/unbal_train/Eb.tfrecord"
        string_val: "/home/ubuntu/EE542_final_project/audioset_v1_embeddings/unbal_train/Nu.tfrecord"
        string_val: "/home/ubuntu/EE542_final_project/audioset_v1_embeddings/unbal_train/Xc.tfrecord"
        string_val: "/home/ubuntu/EE542_final_project/audioset_v1_embeddings/unbal_train/Yy.tfrecord"
        string_val: "/home/ubuntu/EE542_final_project/audioset_v1_embeddings/unbal_train/m-.tfrecord"
        string_val: "/home/ubuntu/EE542_final_project/audioset_v1_embeddings/unbal_train/cM.tfrecord"
        string_val: "/home/ubuntu/EE542_final_project/audioset_v1_embeddings/unbal_train/fy.tfrecord"
        string_val: "/home/ubuntu/EE542_final_project/audioset_v1_embeddings/unbal_train/7l.tfrecord"
        string_val: "/home/ubuntu/EE542_final_project/audioset_v1_embeddings/unbal_train/r-.tfrecord"
        string_val: "/home/ubuntu/EE542_final_project/audioset_v1_embeddings/unbal_train/9U.tfrecord"
        string_val: "/home/ubuntu/EE542_final_project/audioset_v1_embeddings/unbal_train/4f.tfrecord"
        string_val: "/home/ubuntu/EE542_final_project/audioset_v1_embeddings/unbal_train/p_.tfrecord"
        string_val: "/home/ubuntu/EE542_final_project/audioset_v1_embeddings/unbal_train/64.tfrecord"
        string_val: "/home/ubuntu/EE542_final_project/audioset_v1_embeddings/unbal_train/zg.tfrecord"
        string_val: "/home/ubuntu/EE542_final_project/audioset_v1_embeddings/unbal_train/k_.tfrecord"
        string_val: "/home/ubuntu/EE542_final_project/audioset_v1_embeddings/unbal_train/D2.tfrecord"
        string_val: "/home/ubuntu/EE542_final_project/audioset_v1_embeddings/unbal_train/E4.tfrecord"
        string_val: "/home/ubuntu/EE542_final_project/audioset_v1_embeddings/unbal_train/mG.tfrecord"
        string_val: "/home/ubuntu/EE542_final_project/audioset_v1_embeddings/unbal_train/t2.tfrecord"
        string_val: "/home/ubuntu/EE542_final_project/audioset_v1_embeddings/unbal_train/I5.tfrecord"
        string_val: "/home/ubuntu/EE542_final_project/audioset_v1_embeddings/unbal_train/Cp.tfrecord"
        string_val: "/home/ubuntu/EE542_final_project/audioset_v1_embeddings/unbal_train/w6.tfrecord"
        string_val: "/home/ubuntu/EE542_final_project/audioset_v1_embeddings/unbal_train/Du.tfrecord"
        string_val: "/home/ubuntu/EE542_final_project/audioset_v1_embeddings/unbal_train/L3.tfrecord"
        string_val: "/home/ubuntu/EE542_final_project/audioset_v1_embeddings/unbal_train/ne.tfrecord"
        string_val: "/home/ubuntu/EE542_final_project/audioset_v1_embeddings/unbal_train/bC.tfrecord"
        string_val: "/home/ubuntu/EE542_final_project/audioset_v1_embeddings/unbal_train/SV.tfrecord"
        string_val: "/home/ubuntu/EE542_final_project/audioset_v1_embeddings/unbal_train/9i.tfrecord"
        string_val: "/home/ubuntu/EE542_final_project/audioset_v1_embeddings/unbal_train/B6.tfrecord"
        string_val: "/home/ubuntu/EE542_final_project/audioset_v1_embeddings/unbal_train/tf.tfrecord"
        string_val: "/home/ubuntu/EE542_final_project/audioset_v1_embeddings/unbal_train/W3.tfrecord"
        string_val: "/home/ubuntu/EE542_final_project/audioset_v1_embeddings/unbal_train/3D.tfrecord"
        string_val: "/home/ubuntu/EE542_final_project/audioset_v1_embeddings/unbal_train/38.tfrecord"
        string_val: "/home/ubuntu/EE542_final_project/audioset_v1_embeddings/unbal_train/mf.tfrecord"
        string_val: "/home/ubuntu/EE542_final_project/audioset_v1_embeddings/unbal_train/78.tfrecord"
        string_val: "/home/ubuntu/EE542_final_project/audioset_v1_embeddings/unbal_train/YC.tfrecord"
        string_val: "/home/ubuntu/EE542_final_project/audioset_v1_embeddings/unbal_train/9-.tfrecord"
        string_val: "/home/ubuntu/EE542_final_project/audioset_v1_embeddings/unbal_train/Yr.tfrecord"
        string_val: "/home/ubuntu/EE542_final_project/audioset_v1_embeddings/unbal_train/-m.tfrecord"
        string_val: "/home/ubuntu/EE542_final_project/audioset_v1_embeddings/unbal_train/92.tfrecord"
        string_val: "/home/ubuntu/EE542_final_project/audioset_v1_embeddings/unbal_train/-9.tfrecord"
        string_val: "/home/ubuntu/EE542_final_project/audioset_v1_embeddings/unbal_train/2C.tfrecord"
        string_val: "/home/ubuntu/EE542_final_project/audioset_v1_embeddings/unbal_train/0S.tfrecord"
        string_val: "/home/ubuntu/EE542_final_project/audioset_v1_embeddings/unbal_train/5O.tfrecord"
        string_val: "/home/ubuntu/EE542_final_project/audioset_v1_embeddings/unbal_train/wn.tfrecord"
        string_val: "/home/ubuntu/EE542_final_project/audioset_v1_embeddings/unbal_train/m4.tfrecord"
        string_val: "/home/ubuntu/EE542_final_project/audioset_v1_embeddings/unbal_train/9Q.tfrecord"
        string_val: "/home/ubuntu/EE542_final_project/audioset_v1_embeddings/unbal_train/O4.tfrecord"
        string_val: "/home/ubuntu/EE542_final_project/audioset_v1_embeddings/unbal_train/f1.tfrecord"
        string_val: "/home/ubuntu/EE542_final_project/audioset_v1_embeddings/unbal_train/3y.tfrecord"
        string_val: "/home/ubuntu/EE542_final_project/audioset_v1_embeddings/unbal_train/5C.tfrecord"
        string_val: "/home/ubuntu/EE542_final_project/audioset_v1_embeddings/unbal_train/G7.tfrecord"
        string_val: "/home/ubuntu/EE542_final_project/audioset_v1_embeddings/unbal_train/d3.tfrecord"
        string_val: "/home/ubuntu/EE542_final_project/audioset_v1_embeddings/unbal_train/-b.tfrecord"
        string_val: "/home/ubuntu/EE542_final_project/audioset_v1_embeddings/unbal_train/Wq.tfrecord"
        string_val: "/home/ubuntu/EE542_final_project/audioset_v1_embeddings/unbal_train/l1.tfrecord"
        string_val: "/home/ubuntu/EE542_final_project/audioset_v1_embeddings/unbal_train/4g.tfrecord"
        string_val: "/home/ubuntu/EE542_final_project/audioset_v1_embeddings/unbal_train/IN.tfrecord"
        string_val: "/home/ubuntu/EE542_final_project/audioset_v1_embeddings/unbal_train/4k.tfrecord"
        string_val: "/home/ubuntu/EE542_final_project/audioset_v1_embeddings/unbal_train/7p.tfrecord"
        string_val: "/home/ubuntu/EE542_final_project/audioset_v1_embeddings/unbal_train/uf.tfrecord"
        string_val: "/home/ubuntu/EE542_final_project/audioset_v1_embeddings/unbal_train/En.tfrecord"
        string_val: "/home/ubuntu/EE542_final_project/audioset_v1_embeddings/unbal_train/Jp.tfrecord"
        string_val: "/home/ubuntu/EE542_final_project/audioset_v1_embeddings/unbal_train/rf.tfrecord"
        string_val: "/home/ubuntu/EE542_final_project/audioset_v1_embeddings/unbal_train/H3.tfrecord"
        string_val: "/home/ubuntu/EE542_final_project/audioset_v1_embeddings/unbal_train/_Z.tfrecord"
        string_val: "/home/ubuntu/EE542_final_project/audioset_v1_embeddings/unbal_train/l9.tfrecord"
        string_val: "/home/ubuntu/EE542_final_project/audioset_v1_embeddings/unbal_train/6Q.tfrecord"
        string_val: "/home/ubuntu/EE542_final_project/audioset_v1_embeddings/unbal_train/k7.tfrecord"
        string_val: "/home/ubuntu/EE542_final_project/audioset_v1_embeddings/unbal_train/wD.tfrecord"
        string_val: "/home/ubuntu/EE542_final_project/audioset_v1_embeddings/unbal_train/Ar.tfrecord"
        string_val: "/home/ubuntu/EE542_final_project/audioset_v1_embeddings/unbal_train/yk.tfrecord"
        string_val: "/home/ubuntu/EE542_final_project/audioset_v1_embeddings/unbal_train/hg.tfrecord"
        string_val: "/home/ubuntu/EE542_final_project/audioset_v1_embeddings/unbal_train/DZ.tfrecord"
        string_val: "/home/ubuntu/EE542_final_project/audioset_v1_embeddings/unbal_train/iv.tfrecord"
        string_val: "/home/ubuntu/EE542_final_project/audioset_v1_embeddings/unbal_train/Qc.tfrecord"
        string_val: "/home/ubuntu/EE542_final_project/audioset_v1_embeddings/unbal_train/Qy.tfrecord"
        string_val: "/home/ubuntu/EE542_final_project/audioset_v1_embeddings/unbal_train/7U.tfrecord"
        string_val: "/home/ubuntu/EE542_final_project/audioset_v1_embeddings/unbal_train/2i.tfrecord"
        string_val: "/home/ubuntu/EE542_final_project/audioset_v1_embeddings/unbal_train/i1.tfrecord"
        string_val: "/home/ubuntu/EE542_final_project/audioset_v1_embeddings/unbal_train/c-.tfrecord"
        string_val: "/home/ubuntu/EE542_final_project/audioset_v1_embeddings/unbal_train/_c.tfrecord"
        string_val: "/home/ubuntu/EE542_final_project/audioset_v1_embeddings/unbal_train/AX.tfrecord"
        string_val: "/home/ubuntu/EE542_final_project/audioset_v1_embeddings/unbal_train/eF.tfrecord"
        string_val: "/home/ubuntu/EE542_final_project/audioset_v1_embeddings/unbal_train/1j.tfrecord"
        string_val: "/home/ubuntu/EE542_final_project/audioset_v1_embeddings/unbal_train/47.tfrecord"
        string_val: "/home/ubuntu/EE542_final_project/audioset_v1_embeddings/unbal_train/M2.tfrecord"
        string_val: "/home/ubuntu/EE542_final_project/audioset_v1_embeddings/unbal_train/oR.tfrecord"
        string_val: "/home/ubuntu/EE542_final_project/audioset_v1_embeddings/unbal_train/Uy.tfrecord"
        string_val: "/home/ubuntu/EE542_final_project/audioset_v1_embeddings/unbal_train/Gz.tfrecord"
        string_val: "/home/ubuntu/EE542_final_project/audioset_v1_embeddings/unbal_train/_q.tfrecord"
        string_val: "/home/ubuntu/EE542_final_project/audioset_v1_embeddings/unbal_train/_4.tfrecord"
        string_val: "/home/ubuntu/EE542_final_project/audioset_v1_embeddings/unbal_train/O5.tfrecord"
        string_val: "/home/ubuntu/EE542_final_project/audioset_v1_embeddings/unbal_train/Y7.tfrecord"
        string_val: "/home/ubuntu/EE542_final_project/audioset_v1_embeddings/unbal_train/Ul.tfrecord"
        string_val: "/home/ubuntu/EE542_final_project/audioset_v1_embeddings/unbal_train/qH.tfrecord"
        string_val: "/home/ubuntu/EE542_final_project/audioset_v1_embeddings/unbal_train/Y6.tfrecord"
        string_val: "/home/ubuntu/EE542_final_project/audioset_v1_embeddings/unbal_train/M9.tfrecord"
        string_val: "/home/ubuntu/EE542_final_project/audioset_v1_embeddings/unbal_train/ZY.tfrecord"
        string_val: "/home/ubuntu/EE542_final_project/audioset_v1_embeddings/unbal_train/l4.tfrecord"
        string_val: "/home/ubuntu/EE542_final_project/audioset_v1_embeddings/unbal_train/63.tfrecord"
        string_val: "/home/ubuntu/EE542_final_project/audioset_v1_embeddings/unbal_train/FG.tfrecord"
        string_val: "/home/ubuntu/EE542_final_project/audioset_v1_embeddings/unbal_train/Wm.tfrecord"
        string_val: "/home/ubuntu/EE542_final_project/audioset_v1_embeddings/unbal_train/qu.tfrecord"
        string_val: "/home/ubuntu/EE542_final_project/audioset_v1_embeddings/unbal_train/FQ.tfrecord"
        string_val: "/home/ubuntu/EE542_final_project/audioset_v1_embeddings/unbal_train/AW.tfrecord"
        string_val: "/home/ubuntu/EE542_final_project/audioset_v1_embeddings/unbal_train/X1.tfrecord"
        string_val: "/home/ubuntu/EE542_final_project/audioset_v1_embeddings/unbal_train/6X.tfrecord"
        string_val: "/home/ubuntu/EE542_final_project/audioset_v1_embeddings/unbal_train/Hm.tfrecord"
        string_val: "/home/ubuntu/EE542_final_project/audioset_v1_embeddings/unbal_train/Jr.tfrecord"
        string_val: "/home/ubuntu/EE542_final_project/audioset_v1_embeddings/unbal_train/fs.tfrecord"
        string_val: "/home/ubuntu/EE542_final_project/audioset_v1_embeddings/unbal_train/Qk.tfrecord"
        string_val: "/home/ubuntu/EE542_final_project/audioset_v1_embeddings/unbal_train/s-.tfrecord"
        string_val: "/home/ubuntu/EE542_final_project/audioset_v1_embeddings/unbal_train/C2.tfrecord"
        string_val: "/home/ubuntu/EE542_final_project/audioset_v1_embeddings/unbal_train/Qf.tfrecord"
        string_val: "/home/ubuntu/EE542_final_project/audioset_v1_embeddings/unbal_train/B_.tfrecord"
        string_val: "/home/ubuntu/EE542_final_project/audioset_v1_embeddings/unbal_train/a0.tfrecord"
        string_val: "/home/ubuntu/EE542_final_project/audioset_v1_embeddings/unbal_train/Zz.tfrecord"
        string_val: "/home/ubuntu/EE542_final_project/audioset_v1_embeddings/unbal_train/0C.tfrecord"
        string_val: "/home/ubuntu/EE542_final_project/audioset_v1_embeddings/unbal_train/0F.tfrecord"
        string_val: "/home/ubuntu/EE542_final_project/audioset_v1_embeddings/unbal_train/De.tfrecord"
        string_val: "/home/ubuntu/EE542_final_project/audioset_v1_embeddings/unbal_train/4V.tfrecord"
        string_val: "/home/ubuntu/EE542_final_project/audioset_v1_embeddings/unbal_train/ib.tfrecord"
        string_val: "/home/ubuntu/EE542_final_project/audioset_v1_embeddings/unbal_train/_V.tfrecord"
        string_val: "/home/ubuntu/EE542_final_project/audioset_v1_embeddings/unbal_train/2_.tfrecord"
        string_val: "/home/ubuntu/EE542_final_project/audioset_v1_embeddings/unbal_train/oo.tfrecord"
        string_val: "/home/ubuntu/EE542_final_project/audioset_v1_embeddings/unbal_train/f3.tfrecord"
        string_val: "/home/ubuntu/EE542_final_project/audioset_v1_embeddings/unbal_train/4e.tfrecord"
        string_val: "/home/ubuntu/EE542_final_project/audioset_v1_embeddings/unbal_train/WR.tfrecord"
        string_val: "/home/ubuntu/EE542_final_project/audioset_v1_embeddings/unbal_train/dC.tfrecord"
        string_val: "/home/ubuntu/EE542_final_project/audioset_v1_embeddings/unbal_train/3u.tfrecord"
        string_val: "/home/ubuntu/EE542_final_project/audioset_v1_embeddings/unbal_train/g3.tfrecord"
        string_val: "/home/ubuntu/EE542_final_project/audioset_v1_embeddings/unbal_train/ps.tfrecord"
        string_val: "/home/ubuntu/EE542_final_project/audioset_v1_embeddings/unbal_train/0e.tfrecord"
        string_val: "/home/ubuntu/EE542_final_project/audioset_v1_embeddings/unbal_train/rc.tfrecord"
        string_val: "/home/ubuntu/EE542_final_project/audioset_v1_embeddings/unbal_train/-2.tfrecord"
        string_val: "/home/ubuntu/EE542_final_project/audioset_v1_embeddings/unbal_train/rM.tfrecord"
        string_val: "/home/ubuntu/EE542_final_project/audioset_v1_embeddings/unbal_train/LO.tfrecord"
        string_val: "/home/ubuntu/EE542_final_project/audioset_v1_embeddings/unbal_train/nN.tfrecord"
        string_val: "/home/ubuntu/EE542_final_project/audioset_v1_embeddings/unbal_train/rJ.tfrecord"
        string_val: "/home/ubuntu/EE542_final_project/audioset_v1_embeddings/unbal_train/Jx.tfrecord"
        string_val: "/home/ubuntu/EE542_final_project/audioset_v1_embeddings/unbal_train/5R.tfrecord"
        string_val: "/home/ubuntu/EE542_final_project/audioset_v1_embeddings/unbal_train/0x.tfrecord"
        string_val: "/home/ubuntu/EE542_final_project/audioset_v1_embeddings/unbal_train/Dw.tfrecord"
        string_val: "/home/ubuntu/EE542_final_project/audioset_v1_embeddings/unbal_train/_b.tfrecord"
        string_val: "/home/ubuntu/EE542_final_project/audioset_v1_embeddings/unbal_train/JD.tfrecord"
        string_val: "/home/ubuntu/EE542_final_project/audioset_v1_embeddings/unbal_train/Ew.tfrecord"
        string_val: "/home/ubuntu/EE542_final_project/audioset_v1_embeddings/unbal_train/tg.tfrecord"
        string_val: "/home/ubuntu/EE542_final_project/audioset_v1_embeddings/unbal_train/Lk.tfrecord"
        string_val: "/home/ubuntu/EE542_final_project/audioset_v1_embeddings/unbal_train/54.tfrecord"
        string_val: "/home/ubuntu/EE542_final_project/audioset_v1_embeddings/unbal_train/eX.tfrecord"
        string_val: "/home/ubuntu/EE542_final_project/audioset_v1_embeddings/unbal_train/aN.tfrecord"
        string_val: "/home/ubuntu/EE542_final_project/audioset_v1_embeddings/unbal_train/__.tfrecord"
        string_val: "/home/ubuntu/EE542_final_project/audioset_v1_embeddings/unbal_train/Vy.tfrecord"
        string_val: "/home/ubuntu/EE542_final_project/audioset_v1_embeddings/unbal_train/65.tfrecord"
        string_val: "/home/ubuntu/EE542_final_project/audioset_v1_embeddings/unbal_train/Xs.tfrecord"
        string_val: "/home/ubuntu/EE542_final_project/audioset_v1_embeddings/unbal_train/nL.tfrecord"
        string_val: "/home/ubuntu/EE542_final_project/audioset_v1_embeddings/unbal_train/1C.tfrecord"
        string_val: "/home/ubuntu/EE542_final_project/audioset_v1_embeddings/unbal_train/gh.tfrecord"
        string_val: "/home/ubuntu/EE542_final_project/audioset_v1_embeddings/unbal_train/im.tfrecord"
        string_val: "/home/ubuntu/EE542_final_project/audioset_v1_embeddings/unbal_train/ly.tfrecord"
        string_val: "/home/ubuntu/EE542_final_project/audioset_v1_embeddings/unbal_train/58.tfrecord"
        string_val: "/home/ubuntu/EE542_final_project/audioset_v1_embeddings/unbal_train/c0.tfrecord"
        string_val: "/home/ubuntu/EE542_final_project/audioset_v1_embeddings/unbal_train/by.tfrecord"
…
          dim {
            size: 3862
          }
        }
      }
    }
  }
  attr {
    key: "index_type"
    value {
      type: DT_INT32
    }
  }
}
node {
  name: "tower/fully_connected/biases/Adam"
  op: "VariableV2"
  device: "/device:CPU:0"
  attr {
    key: "_class"
    value {
      list {
        s: "loc:@tower/fully_connected/biases"
      }
    }
  }
  attr {
    key: "_output_shapes"
    value {
      list {
        shape {
          dim {
            size: 3862
          }
        }
      }
    }
  }
  attr {
    key: "container"
    value {
      s: ""
    }
  }
  attr {
    key: "dtype"
    value {
      type: DT_FLOAT
    }
  }
  attr {
    key: "shape"
    value {
      shape {
        dim {
          size: 3862
        }
      }
    }
  }
  attr {
    key: "shared_name"
    value {
      s: ""
    }
  }
}
node {
  name: "tower/fully_connected/biases/Adam/Assign"
  op: "Assign"
  input: "tower/fully_connected/biases/Adam"
  input: "tower/fully_connected/biases/Adam/Initializer/zeros"
  device: "/device:CPU:0"
  attr {
    key: "T"
    value {
      type: DT_FLOAT
    }
  }
  attr {
    key: "_class"
    value {
      list {
        s: "loc:@tower/fully_connected/biases"
      }
    }
  }
  attr {
    key: "_output_shapes"
    value {
      list {
        shape {
          dim {
            size: 3862
          }
        }
      }
    }
  }
  attr {
    key: "use_locking"
    value {
      b: true
    }
  }
  attr {
    key: "validate_shape"
    value {
      b: true
    }
  }
}
node {
  name: "tower/fully_connected/biases/Adam/read"
  op: "Identity"
  input: "tower/fully_connected/biases/Adam"
  device: "/device:CPU:0"
  attr {
    key: "T"
    value {
      type: DT_FLOAT
    }
  }
  attr {
    key: "_class"
    value {
      list {
        s: "loc:@tower/fully_connected/biases"
      }
    }
  }
  attr {
    key: "_output_shapes"
    value {
      list {
        shape {
          dim {
            size: 3862
          }
        }
      }
    }
  }
}
node {
  name: "tower/fully_connected/biases/Adam_1/Initializer/zeros/shape_as_tensor"
  op: "Const"
  device: "/device:CPU:0"
  attr {
    key: "_class"
    value {
      list {
        s: "loc:@tower/fully_connected/biases"
      }
    }
  }
  attr {
    key: "_output_shapes"
    value {
      list {
        shape {
          dim {
            size: 1
          }
        }
      }
    }
  }
  attr {
    key: "dtype"
    value {
      type: DT_INT32
    }
  }
  attr {
    key: "value"
    value {
      tensor {
        dtype: DT_INT32
        tensor_shape {
          dim {
            size: 1
          }
        }
        int_val: 3862
      }
    }
  }
}
node {
  name: "tower/fully_connected/biases/Adam_1/Initializer/zeros/Const"
  op: "Const"
  device: "/device:CPU:0"
  attr {
    key: "_class"
    value {
      list {
        s: "loc:@tower/fully_connected/biases"
      }
    }
  }
  attr {
    key: "_output_shapes"
    value {
      list {
        shape {
        }
      }
    }
  }
  attr {
    key: "dtype"
    value {
      type: DT_FLOAT
    }
  }
  attr {
    key: "value"
    value {
      tensor {
        dtype: DT_FLOAT
        tensor_shape {
        }
        float_val: 0.0
      }
    }
  }
}
node {
  name: "tower/fully_connected/biases/Adam_1/Initializer/zeros"
  op: "Fill"
  input: "tower/fully_connected/biases/Adam_1/Initializer/zeros/shape_as_tensor"
  input: "tower/fully_connected/biases/Adam_1/Initializer/zeros/Const"
  device: "/device:CPU:0"
  attr {
    key: "T"
    value {
      type: DT_FLOAT
    }
  }
  attr {
    key: "_class"
    value {
      list {
        s: "loc:@tower/fully_connected/biases"
      }
    }
  }
  attr {
    key: "_output_shapes"
    value {
      list {
        shape {
          dim {
            size: 3862
          }
        }
      }
    }
  }
  attr {
    key: "index_type"
    value {
      type: DT_INT32
    }
  }
}
node {
  name: "tower/fully_connected/biases/Adam_1"
  op: "VariableV2"
  device: "/device:CPU:0"
  attr {
    key: "_class"
    value {
      list {
        s: "loc:@tower/fully_connected/biases"
      }
    }
  }
  attr {
    key: "_output_shapes"
    value {
      list {
        shape {
          dim {
            size: 3862
          }
        }
      }
    }
  }
  attr {
    key: "container"
    value {
      s: ""
    }
  }
  attr {
    key: "dtype"
    value {
      type: DT_FLOAT
    }
  }
  attr {
    key: "shape"
    value {
      shape {
        dim {
          size: 3862
        }
      }
    }
  }
  attr {
    key: "shared_name"
    value {
      s: ""
    }
  }
}
node {
  name: "tower/fully_connected/biases/Adam_1/Assign"
  op: "Assign"
  input: "tower/fully_connected/biases/Adam_1"
  input: "tower/fully_connected/biases/Adam_1/Initializer/zeros"
  device: "/device:CPU:0"
  attr {
    key: "T"
    value {
      type: DT_FLOAT
    }
  }
  attr {
    key: "_class"
    value {
      list {
        s: "loc:@tower/fully_connected/biases"
      }
    }
  }
  attr {
    key: "_output_shapes"
    value {
      list {
        shape {
          dim {
            size: 3862
          }
        }
      }
    }
  }
  attr {
    key: "use_locking"
    value {
      b: true
    }
  }
  attr {
    key: "validate_shape"
    value {
      b: true
    }
  }
}
node {
  name: "tower/fully_connected/biases/Adam_1/read"
  op: "Identity"
  input: "tower/fully_connected/biases/Adam_1"
  device: "/device:CPU:0"
  attr {
    key: "T"
    value {
      type: DT_FLOAT
    }
  }
  attr {
    key: "_class"
    value {
      list {
        s: "loc:@tower/fully_connected/biases"
      }
    }
  }
  attr {
    key: "_output_shapes"
    value {
      list {
        shape {
          dim {
            size: 3862
          }
        }
      }
    }
  }
}
node {
  name: "Adam/beta1"
  op: "Const"
  attr {
    key: "_output_shapes"
    value {
      list {
        shape {
        }
      }
    }
  }
  attr {
    key: "dtype"
    value {
      type: DT_FLOAT
    }
  }
  attr {
    key: "value"
    value {
      tensor {
        dtype: DT_FLOAT
        tensor_shape {
        }
        float_val: 0.8999999761581421
      }
    }
  }
}
node {
  name: "Adam/beta2"
  op: "Const"
  attr {
    key: "_output_shapes"
    value {
      list {
        shape {
        }
      }
    }
  }
  attr {
    key: "dtype"
    value {
      type: DT_FLOAT
    }
  }
  attr {
    key: "value"
    value {
      tensor {
        dtype: DT_FLOAT
        tensor_shape {
        }
        float_val: 0.9990000128746033
      }
    }
  }
}
node {
  name: "Adam/epsilon"
  op: "Const"
  attr {
    key: "_output_shapes"
    value {
      list {
        shape {
        }
      }
    }
  }
  attr {
    key: "dtype"
    value {
      type: DT_FLOAT
    }
  }
  attr {
    key: "value"
    value {
      tensor {
        dtype: DT_FLOAT
        tensor_shape {
        }
        float_val: 9.99999993922529e-09
      }
    }
  }
}
node {
  name: "Adam/update_tower/fully_connected/weights/ApplyAdam"
  op: "ApplyAdam"
  input: "tower/fully_connected/weights"
  input: "tower/fully_connected/weights/Adam"
  input: "tower/fully_connected/weights/Adam_1"
  input: "beta1_power/read"
  input: "beta2_power/read"
  input: "ExponentialDecay"
  input: "Adam/beta1"
  input: "Adam/beta2"
  input: "Adam/epsilon"
  input: "clip_grads/clip_by_norm"
  device: "/device:CPU:0"
  attr {
    key: "T"
    value {
      type: DT_FLOAT
    }
  }
  attr {
    key: "_class"
    value {
      list {
        s: "loc:@tower/fully_connected/weights"
      }
    }
  }
  attr {
    key: "_output_shapes"
    value {
      list {
        shape {
          dim {
            size: 128
          }
          dim {
            size: 3862
          }
        }
      }
    }
  }
  attr {
    key: "use_locking"
    value {
      b: false
    }
  }
  attr {
    key: "use_nesterov"
    value {
      b: false
    }
  }
}
node {
  name: "Adam/update_tower/fully_connected/biases/ApplyAdam"
  op: "ApplyAdam"
  input: "tower/fully_connected/biases"
  input: "tower/fully_connected/biases/Adam"
  input: "tower/fully_connected/biases/Adam_1"
  input: "beta1_power/read"
  input: "beta2_power/read"
  input: "ExponentialDecay"
  input: "Adam/beta1"
  input: "Adam/beta2"
  input: "Adam/epsilon"
  input: "clip_grads/clip_by_norm_1"
  device: "/device:CPU:0"
  attr {
    key: "T"
    value {
      type: DT_FLOAT
    }
  }
  attr {
    key: "_class"
    value {
      list {
        s: "loc:@tower/fully_connected/biases"
      }
    }
  }
  attr {
    key: "_output_shapes"
    value {
      list {
        shape {
          dim {
            size: 3862
          }
        }
      }
    }
  }
  attr {
    key: "use_locking"
    value {
      b: false
    }
  }
  attr {
    key: "use_nesterov"
    value {
      b: false
    }
  }
}
node {
  name: "Adam/mul"
  op: "Mul"
  input: "beta1_power/read"
  input: "Adam/beta1"
  input: "^Adam/update_tower/fully_connected/biases/ApplyAdam"
  input: "^Adam/update_tower/fully_connected/weights/ApplyAdam"
  device: "/device:CPU:0"
  attr {
    key: "T"
    value {
      type: DT_FLOAT
    }
  }
  attr {
    key: "_class"
    value {
      list {
        s: "loc:@tower/fully_connected/biases"
      }
    }
  }
  attr {
    key: "_output_shapes"
    value {
      list {
        shape {
        }
      }
    }
  }
}
node {
  name: "Adam/Assign"
  op: "Assign"
  input: "beta1_power"
  input: "Adam/mul"
  device: "/device:CPU:0"
  attr {
    key: "T"
    value {
      type: DT_FLOAT
    }
  }
  attr {
    key: "_class"
    value {
      list {
        s: "loc:@tower/fully_connected/biases"
      }
    }
  }
  attr {
    key: "_output_shapes"
    value {
      list {
        shape {
        }
      }
    }
  }
  attr {
    key: "use_locking"
    value {
      b: false
    }
  }
  attr {
    key: "validate_shape"
    value {
      b: true
    }
  }
}
node {
  name: "Adam/mul_1"
  op: "Mul"
  input: "beta2_power/read"
  input: "Adam/beta2"
  input: "^Adam/update_tower/fully_connected/biases/ApplyAdam"
  input: "^Adam/update_tower/fully_connected/weights/ApplyAdam"
  device: "/device:CPU:0"
  attr {
    key: "T"
    value {
      type: DT_FLOAT
    }
  }
  attr {
    key: "_class"
    value {
      list {
        s: "loc:@tower/fully_connected/biases"
      }
    }
  }
  attr {
    key: "_output_shapes"
    value {
      list {
        shape {
        }
      }
    }
  }
}
node {
  name: "Adam/Assign_1"
  op: "Assign"
  input: "beta2_power"
  input: "Adam/mul_1"
  device: "/device:CPU:0"
  attr {
    key: "T"
    value {
      type: DT_FLOAT
    }
  }
  attr {
    key: "_class"
    value {
      list {
        s: "loc:@tower/fully_connected/biases"
      }
    }
  }
  attr {
    key: "_output_shapes"
    value {
      list {
        shape {
        }
      }
    }
  }
  attr {
    key: "use_locking"
    value {
      b: false
    }
  }
  attr {
    key: "validate_shape"
    value {
      b: true
    }
  }
}
node {
  name: "Adam/update"
  op: "NoOp"
  input: "^Adam/Assign"
  input: "^Adam/Assign_1"
  input: "^Adam/update_tower/fully_connected/biases/ApplyAdam"
  input: "^Adam/update_tower/fully_connected/weights/ApplyAdam"
  device: "/device:CPU:0"
}
node {
  name: "Adam/value"
  op: "Const"
  input: "^Adam/update"
  attr {
    key: "_class"
    value {
      list {
        s: "loc:@global_step"
      }
    }
  }
  attr {
    key: "_output_shapes"
    value {
      list {
        shape {
        }
      }
    }
  }
  attr {
    key: "dtype"
    value {
      type: DT_INT32
    }
  }
  attr {
    key: "value"
    value {
      tensor {
        dtype: DT_INT32
        tensor_shape {
        }
        int_val: 1
      }
    }
  }
}
node {
  name: "Adam"
  op: "AssignAdd"
  input: "global_step"
  input: "Adam/value"
  attr {
    key: "T"
    value {
      type: DT_INT32
    }
  }
  attr {
    key: "_class"
    value {
      list {
        s: "loc:@global_step"
      }
    }
  }
  attr {
    key: "_output_shapes"
    value {
      list {
        shape {
        }
      }
    }
  }
  attr {
    key: "use_locking"
    value {
      b: false
    }
  }
}
node {
  name: "concat/concat_dim"
  op: "Const"
  attr {
    key: "_output_shapes"
    value {
      list {
        shape {
        }
      }
    }
  }
  attr {
    key: "dtype"
    value {
      type: DT_INT32
    }
  }
  attr {
    key: "value"
    value {
      tensor {
        dtype: DT_INT32
        tensor_shape {
        }
        int_val: 0
      }
    }
  }
}
node {
  name: "concat"
  op: "Identity"
  input: "tower/fully_connected/Sigmoid"
  attr {
    key: "T"
    value {
      type: DT_FLOAT
    }
  }
  attr {
    key: "_output_shapes"
    value {
      list {
        shape {
          dim {
            size: -1
          }
          dim {
            size: 3862
          }
        }
      }
    }
  }
}
node {
  name: "Cast"
  op: "Cast"
  input: "train_input/shuffle_batch_join"
  attr {
    key: "DstT"
    value {
      type: DT_FLOAT
    }
  }
  attr {
    key: "SrcT"
    value {
      type: DT_BOOL
    }
  }
  attr {
    key: "Truncate"
    value {
      b: false
    }
  }
  attr {
    key: "_output_shapes"
    value {
      list {
        shape {
          dim {
            size: -1
          }
          dim {
            size: 3862
          }
        }
      }
    }
  }
}
node {
  name: "save/filename/input"
  op: "Const"
  attr {
    key: "_output_shapes"
    value {
      list {
        shape {
        }
      }
    }
  }
  attr {
    key: "dtype"
    value {
      type: DT_STRING
    }
  }
  attr {
    key: "value"
    value {
      tensor {
        dtype: DT_STRING
        tensor_shape {
        }
        string_val: "model"
      }
    }
  }
}
node {
  name: "save/filename"
  op: "PlaceholderWithDefault"
  input: "save/filename/input"
  attr {
    key: "_output_shapes"
    value {
      list {
        shape {
        }
      }
    }
  }
  attr {
    key: "dtype"
    value {
      type: DT_STRING
    }
  }
  attr {
    key: "shape"
    value {
      shape {
      }
    }
  }
}
node {
  name: "save/Const"
  op: "PlaceholderWithDefault"
  input: "save/filename"
  attr {
    key: "_output_shapes"
    value {
      list {
        shape {
        }
      }
    }
  }
  attr {
    key: "dtype"
    value {
      type: DT_STRING
    }
  }
  attr {
    key: "shape"
    value {
      shape {
      }
    }
  }
}
node {
  name: "save/SaveV2/tensor_names"
  op: "Const"
  attr {
    key: "_output_shapes"
    value {
      list {
        shape {
          dim {
            size: 9
          }
        }
      }
    }
  }
  attr {
    key: "dtype"
    value {
      type: DT_STRING
    }
  }
  attr {
    key: "value"
    value {
      tensor {
        dtype: DT_STRING
        tensor_shape {
          dim {
            size: 9
          }
        }
        string_val: "beta1_power"
        string_val: "beta2_power"
        string_val: "global_step"
        string_val: "tower/fully_connected/biases"
        string_val: "tower/fully_connected/biases/Adam"
        string_val: "tower/fully_connected/biases/Adam_1"
        string_val: "tower/fully_connected/weights"
        string_val: "tower/fully_connected/weights/Adam"
        string_val: "tower/fully_connected/weights/Adam_1"
      }
    }
  }
}
node {
  name: "save/SaveV2/shape_and_slices"
  op: "Const"
  attr {
    key: "_output_shapes"
    value {
      list {
        shape {
          dim {
            size: 9
          }
        }
      }
    }
  }
  attr {
    key: "dtype"
    value {
      type: DT_STRING
    }
  }
  attr {
    key: "value"
    value {
      tensor {
        dtype: DT_STRING
        tensor_shape {
          dim {
            size: 9
          }
        }
        string_val: ""
        string_val: ""
        string_val: ""
        string_val: ""
        string_val: ""
        string_val: ""
        string_val: ""
        string_val: ""
        string_val: ""
      }
    }
  }
}
node {
  name: "save/SaveV2"
  op: "SaveV2"
  input: "save/Const"
  input: "save/SaveV2/tensor_names"
  input: "save/SaveV2/shape_and_slices"
  input: "beta1_power"
  input: "beta2_power"
  input: "global_step"
  input: "tower/fully_connected/biases"
  input: "tower/fully_connected/biases/Adam"
  input: "tower/fully_connected/biases/Adam_1"
  input: "tower/fully_connected/weights"
  input: "tower/fully_connected/weights/Adam"
  input: "tower/fully_connected/weights/Adam_1"
  attr {
    key: "dtypes"
    value {
      list {
        type: DT_FLOAT
        type: DT_FLOAT
        type: DT_INT32
        type: DT_FLOAT
        type: DT_FLOAT
        type: DT_FLOAT
        type: DT_FLOAT
        type: DT_FLOAT
        type: DT_FLOAT
      }
    }
  }
}
node {
  name: "save/control_dependency"
  op: "Identity"
  input: "save/Const"
  input: "^save/SaveV2"
  attr {
    key: "T"
    value {
      type: DT_STRING
    }
  }
  attr {
    key: "_class"
    value {
      list {
        s: "loc:@save/Const"
      }
    }
  }
  attr {
    key: "_output_shapes"
    value {
      list {
        shape {
        }
      }
    }
  }
}
node {
  name: "save/RestoreV2/tensor_names"
  op: "Const"
  device: "/device:CPU:0"
  attr {
    key: "_output_shapes"
    value {
      list {
        shape {
          dim {
            size: 9
          }
        }
      }
    }
  }
  attr {
    key: "dtype"
    value {
      type: DT_STRING
    }
  }
  attr {
    key: "value"
    value {
      tensor {
        dtype: DT_STRING
        tensor_shape {
          dim {
            size: 9
          }
        }
        string_val: "beta1_power"
        string_val: "beta2_power"
        string_val: "global_step"
        string_val: "tower/fully_connected/biases"
        string_val: "tower/fully_connected/biases/Adam"
        string_val: "tower/fully_connected/biases/Adam_1"
        string_val: "tower/fully_connected/weights"
        string_val: "tower/fully_connected/weights/Adam"
        string_val: "tower/fully_connected/weights/Adam_1"
      }
    }
  }
}
node {
  name: "save/RestoreV2/shape_and_slices"
  op: "Const"
  device: "/device:CPU:0"
  attr {
    key: "_output_shapes"
    value {
      list {
        shape {
          dim {
            size: 9
          }
        }
      }
    }
  }
  attr {
    key: "dtype"
    value {
      type: DT_STRING
    }
  }
  attr {
    key: "value"
    value {
      tensor {
        dtype: DT_STRING
        tensor_shape {
          dim {
            size: 9
          }
        }
        string_val: ""
        string_val: ""
        string_val: ""
        string_val: ""
        string_val: ""
        string_val: ""
        string_val: ""
        string_val: ""
        string_val: ""
      }
    }
  }
}
node {
  name: "save/RestoreV2"
  op: "RestoreV2"
  input: "save/Const"
  input: "save/RestoreV2/tensor_names"
  input: "save/RestoreV2/shape_and_slices"
  device: "/device:CPU:0"
  attr {
    key: "_output_shapes"
    value {
      list {
        shape {
          unknown_rank: true
        }
        shape {
          unknown_rank: true
        }
        shape {
          unknown_rank: true
        }
        shape {
          unknown_rank: true
        }
        shape {
          unknown_rank: true
        }
        shape {
          unknown_rank: true
        }
        shape {
          unknown_rank: true
        }
        shape {
          unknown_rank: true
        }
        shape {
          unknown_rank: true
        }
      }
    }
  }
  attr {
    key: "dtypes"
    value {
      list {
        type: DT_FLOAT
        type: DT_FLOAT
        type: DT_INT32
        type: DT_FLOAT
        type: DT_FLOAT
        type: DT_FLOAT
        type: DT_FLOAT
        type: DT_FLOAT
        type: DT_FLOAT
      }
    }
  }
}
node {
  name: "save/Assign"
  op: "Assign"
  input: "beta1_power"
  input: "save/RestoreV2"
  device: "/device:CPU:0"
  attr {
    key: "T"
    value {
      type: DT_FLOAT
    }
  }
  attr {
    key: "_class"
    value {
      list {
        s: "loc:@tower/fully_connected/biases"
      }
    }
  }
  attr {
    key: "_output_shapes"
    value {
      list {
        shape {
        }
      }
    }
  }
  attr {
    key: "use_locking"
    value {
      b: true
    }
  }
  attr {
    key: "validate_shape"
    value {
      b: true
    }
  }
}
node {
  name: "save/Assign_1"
  op: "Assign"
  input: "beta2_power"
  input: "save/RestoreV2:1"
  device: "/device:CPU:0"
  attr {
    key: "T"
    value {
      type: DT_FLOAT
    }
  }
  attr {
    key: "_class"
    value {
      list {
        s: "loc:@tower/fully_connected/biases"
      }
    }
  }
  attr {
    key: "_output_shapes"
    value {
      list {
        shape {
        }
      }
    }
  }
  attr {
    key: "use_locking"
    value {
      b: true
    }
  }
  attr {
    key: "validate_shape"
    value {
      b: true
    }
  }
}
node {
  name: "save/Assign_2"
  op: "Assign"
  input: "global_step"
  input: "save/RestoreV2:2"
  attr {
    key: "T"
    value {
      type: DT_INT32
    }
  }
  attr {
    key: "_class"
    value {
      list {
        s: "loc:@global_step"
      }
    }
  }
  attr {
    key: "_output_shapes"
    value {
      list {
        shape {
        }
      }
    }
  }
  attr {
    key: "use_locking"
    value {
      b: true
    }
  }
  attr {
    key: "validate_shape"
    value {
      b: true
    }
  }
}
node {
  name: "save/Assign_3"
  op: "Assign"
  input: "tower/fully_connected/biases"
  input: "save/RestoreV2:3"
  device: "/device:CPU:0"
  attr {
    key: "T"
    value {
      type: DT_FLOAT
    }
  }
  attr {
    key: "_class"
    value {
      list {
        s: "loc:@tower/fully_connected/biases"
      }
    }
  }
  attr {
    key: "_output_shapes"
    value {
      list {
        shape {
          dim {
            size: 3862
          }
        }
      }
    }
  }
  attr {
    key: "use_locking"
    value {
      b: true
    }
  }
  attr {
    key: "validate_shape"
    value {
      b: true
    }
  }
}
node {
  name: "save/Assign_4"
  op: "Assign"
  input: "tower/fully_connected/biases/Adam"
  input: "save/RestoreV2:4"
  device: "/device:CPU:0"
  attr {
    key: "T"
    value {
      type: DT_FLOAT
    }
  }
  attr {
    key: "_class"
    value {
      list {
        s: "loc:@tower/fully_connected/biases"
      }
    }
  }
  attr {
    key: "_output_shapes"
    value {
      list {
        shape {
          dim {
            size: 3862
          }
        }
      }
    }
  }
  attr {
    key: "use_locking"
    value {
      b: true
    }
  }
  attr {
    key: "validate_shape"
    value {
      b: true
    }
  }
}
node {
  name: "save/Assign_5"
  op: "Assign"
  input: "tower/fully_connected/biases/Adam_1"
  input: "save/RestoreV2:5"
  device: "/device:CPU:0"
  attr {
    key: "T"
    value {
      type: DT_FLOAT
    }
  }
  attr {
    key: "_class"
    value {
      list {
        s: "loc:@tower/fully_connected/biases"
      }
    }
  }
  attr {
    key: "_output_shapes"
    value {
      list {
        shape {
          dim {
            size: 3862
          }
        }
      }
    }
  }
  attr {
    key: "use_locking"
    value {
      b: true
    }
  }
  attr {
    key: "validate_shape"
    value {
      b: true
    }
  }
}
node {
  name: "save/Assign_6"
  op: "Assign"
  input: "tower/fully_connected/weights"
  input: "save/RestoreV2:6"
  device: "/device:CPU:0"
  attr {
    key: "T"
    value {
      type: DT_FLOAT
    }
  }
  attr {
    key: "_class"
    value {
      list {
        s: "loc:@tower/fully_connected/weights"
      }
    }
  }
  attr {
    key: "_output_shapes"
    value {
      list {
        shape {
          dim {
            size: 128
          }
          dim {
            size: 3862
          }
        }
      }
    }
  }
  attr {
    key: "use_locking"
    value {
      b: true
    }
  }
  attr {
    key: "validate_shape"
    value {
      b: true
    }
  }
}
node {
  name: "save/Assign_7"
  op: "Assign"
  input: "tower/fully_connected/weights/Adam"
  input: "save/RestoreV2:7"
  device: "/device:CPU:0"
  attr {
    key: "T"
    value {
      type: DT_FLOAT
    }
  }
  attr {
    key: "_class"
    value {
      list {
        s: "loc:@tower/fully_connected/weights"
      }
    }
  }
  attr {
    key: "_output_shapes"
    value {
      list {
        shape {
          dim {
            size: 128
          }
          dim {
            size: 3862
          }
        }
      }
    }
  }
  attr {
    key: "use_locking"
    value {
      b: true
    }
  }
  attr {
    key: "validate_shape"
    value {
      b: true
    }
  }
}
node {
  name: "save/Assign_8"
  op: "Assign"
  input: "tower/fully_connected/weights/Adam_1"
  input: "save/RestoreV2:8"
  device: "/device:CPU:0"
  attr {
    key: "T"
    value {
      type: DT_FLOAT
    }
  }
  attr {
    key: "_class"
    value {
      list {
        s: "loc:@tower/fully_connected/weights"
      }
    }
  }
  attr {
    key: "_output_shapes"
    value {
      list {
        shape {
          dim {
            size: 128
          }
          dim {
            size: 3862
          }
        }
      }
    }
  }
  attr {
    key: "use_locking"
    value {
      b: true
    }
  }
  attr {
    key: "validate_shape"
    value {
      b: true
    }
  }
}
node {
  name: "save/restore_all/NoOp"
  op: "NoOp"
  input: "^save/Assign_2"
}
node {
  name: "save/restore_all/NoOp_1"
  op: "NoOp"
  input: "^save/Assign"
  input: "^save/Assign_1"
  input: "^save/Assign_3"
  input: "^save/Assign_4"
  input: "^save/Assign_5"
  input: "^save/Assign_6"
  input: "^save/Assign_7"
  input: "^save/Assign_8"
  device: "/device:CPU:0"
}
node {
  name: "save/restore_all"
  op: "NoOp"
  input: "^save/restore_all/NoOp"
  input: "^save/restore_all/NoOp_1"
}
node {
  name: "init/NoOp"
  op: "NoOp"
  input: "^global_step/Assign"
}
node {
  name: "init/NoOp_1"
  op: "NoOp"
  input: "^beta1_power/Assign"
  input: "^beta2_power/Assign"
  input: "^tower/fully_connected/biases/Adam/Assign"
  input: "^tower/fully_connected/biases/Adam_1/Assign"
  input: "^tower/fully_connected/biases/Assign"
  input: "^tower/fully_connected/weights/Adam/Assign"
  input: "^tower/fully_connected/weights/Adam_1/Assign"
  input: "^tower/fully_connected/weights/Assign"
  device: "/device:CPU:0"
}
node {
  name: "init"
  op: "NoOp"
  input: "^init/NoOp"
  input: "^init/NoOp_1"
}
node {
  name: "report_uninitialized_variables/IsVariableInitialized"
  op: "IsVariableInitialized"
  input: "global_step"
  attr {
    key: "_class"
    value {
      list {
        s: "loc:@global_step"
      }
    }
  }
  attr {
    key: "_output_shapes"
    value {
      list {
        shape {
        }
      }
    }
  }
  attr {
    key: "dtype"
    value {
      type: DT_INT32
    }
  }
}
node {
  name: "report_uninitialized_variables/IsVariableInitialized_1"
  op: "IsVariableInitialized"
  input: "tower/fully_connected/weights"
  device: "/device:CPU:0"
  attr {
    key: "_class"
    value {
      list {
        s: "loc:@tower/fully_connected/weights"
      }
    }
  }
  attr {
    key: "_output_shapes"
    value {
      list {
        shape {
        }
      }
    }
  }
  attr {
    key: "dtype"
    value {
      type: DT_FLOAT
    }
  }
}
node {
  name: "report_uninitialized_variables/IsVariableInitialized_2"
  op: "IsVariableInitialized"
  input: "tower/fully_connected/biases"
  device: "/device:CPU:0"
  attr {
    key: "_class"
    value {
      list {
        s: "loc:@tower/fully_connected/biases"
      }
    }
  }
  attr {
    key: "_output_shapes"
    value {
      list {
        shape {
        }
      }
    }
  }
  attr {
    key: "dtype"
    value {
      type: DT_FLOAT
    }
  }
}
node {
  name: "report_uninitialized_variables/IsVariableInitialized_3"
  op: "IsVariableInitialized"
  input: "beta1_power"
  device: "/device:CPU:0"
  attr {
    key: "_class"
    value {
      list {
        s: "loc:@tower/fully_connected/biases"
      }
    }
  }
  attr {
    key: "_output_shapes"
    value {
      list {
        shape {
        }
      }
    }
  }
  attr {
    key: "dtype"
    value {
      type: DT_FLOAT
    }
  }
}
node {
  name: "report_uninitialized_variables/IsVariableInitialized_4"
  op: "IsVariableInitialized"
  input: "beta2_power"
  device: "/device:CPU:0"
  attr {
    key: "_class"
    value {
      list {
        s: "loc:@tower/fully_connected/biases"
      }
    }
  }
  attr {
    key: "_output_shapes"
    value {
      list {
        shape {
        }
      }
    }
  }
  attr {
    key: "dtype"
    value {
      type: DT_FLOAT
    }
  }
}
node {
  name: "report_uninitialized_variables/IsVariableInitialized_5"
  op: "IsVariableInitialized"
  input: "tower/fully_connected/weights/Adam"
  device: "/device:CPU:0"
  attr {
    key: "_class"
    value {
      list {
        s: "loc:@tower/fully_connected/weights"
      }
    }
  }
  attr {
    key: "_output_shapes"
    value {
      list {
        shape {
        }
      }
    }
  }
  attr {
    key: "dtype"
    value {
      type: DT_FLOAT
    }
  }
}
node {
  name: "report_uninitialized_variables/IsVariableInitialized_6"
  op: "IsVariableInitialized"
  input: "tower/fully_connected/weights/Adam_1"
  device: "/device:CPU:0"
  attr {
    key: "_class"
    value {
      list {
        s: "loc:@tower/fully_connected/weights"
      }
    }
  }
  attr {
    key: "_output_shapes"
    value {
      list {
        shape {
        }
      }
    }
  }
  attr {
    key: "dtype"
    value {
      type: DT_FLOAT
    }
  }
}
node {
  name: "report_uninitialized_variables/IsVariableInitialized_7"
  op: "IsVariableInitialized"
  input: "tower/fully_connected/biases/Adam"
  device: "/device:CPU:0"
  attr {
    key: "_class"
    value {
      list {
        s: "loc:@tower/fully_connected/biases"
      }
    }
  }
  attr {
    key: "_output_shapes"
    value {
      list {
        shape {
        }
      }
    }
  }
  attr {
    key: "dtype"
    value {
      type: DT_FLOAT
    }
  }
}
node {
  name: "report_uninitialized_variables/IsVariableInitialized_8"
  op: "IsVariableInitialized"
  input: "tower/fully_connected/biases/Adam_1"
  device: "/device:CPU:0"
  attr {
    key: "_class"
    value {
      list {
        s: "loc:@tower/fully_connected/biases"
      }
    }
  }
  attr {
    key: "_output_shapes"
    value {
      list {
        shape {
        }
      }
    }
  }
  attr {
    key: "dtype"
    value {
      type: DT_FLOAT
    }
  }
}
node {
  name: "report_uninitialized_variables/IsVariableInitialized_9"
  op: "IsVariableInitialized"
  input: "train_input/input_producer/limit_epochs/epochs"
  attr {
    key: "_class"
    value {
      list {
        s: "loc:@train_input/input_producer/limit_epochs/epochs"
      }
    }
  }
  attr {
    key: "_output_shapes"
    value {
      list {
        shape {
        }
      }
    }
  }
  attr {
    key: "dtype"
    value {
      type: DT_INT64
    }
  }
}
node {
  name: "report_uninitialized_variables/stack"
  op: "Pack"
  input: "report_uninitialized_variables/IsVariableInitialized"
  input: "report_uninitialized_variables/IsVariableInitialized_1"
  input: "report_uninitialized_variables/IsVariableInitialized_2"
  input: "report_uninitialized_variables/IsVariableInitialized_3"
  input: "report_uninitialized_variables/IsVariableInitialized_4"
  input: "report_uninitialized_variables/IsVariableInitialized_5"
  input: "report_uninitialized_variables/IsVariableInitialized_6"
  input: "report_uninitialized_variables/IsVariableInitialized_7"
  input: "report_uninitialized_variables/IsVariableInitialized_8"
  input: "report_uninitialized_variables/IsVariableInitialized_9"
  device: "/device:CPU:0"
  attr {
    key: "N"
    value {
      i: 10
    }
  }
  attr {
    key: "T"
    value {
      type: DT_BOOL
    }
  }
  attr {
    key: "_output_shapes"
    value {
      list {
        shape {
          dim {
            size: 10
          }
        }
      }
    }
  }
  attr {
    key: "axis"
    value {
      i: 0
    }
  }
}
node {
  name: "report_uninitialized_variables/LogicalNot"
  op: "LogicalNot"
  input: "report_uninitialized_variables/stack"
  device: "/device:CPU:0"
  attr {
    key: "_output_shapes"
    value {
      list {
        shape {
          dim {
            size: 10
          }
        }
      }
    }
  }
}
node {
  name: "report_uninitialized_variables/Const"
  op: "Const"
  device: "/device:CPU:0"
  attr {
    key: "_output_shapes"
    value {
      list {
        shape {
          dim {
            size: 10
          }
        }
      }
    }
  }
  attr {
    key: "dtype"
    value {
      type: DT_STRING
    }
  }
  attr {
    key: "value"
    value {
      tensor {
        dtype: DT_STRING
        tensor_shape {
          dim {
            size: 10
          }
        }
        string_val: "global_step"
        string_val: "tower/fully_connected/weights"
        string_val: "tower/fully_connected/biases"
        string_val: "beta1_power"
        string_val: "beta2_power"
        string_val: "tower/fully_connected/weights/Adam"
        string_val: "tower/fully_connected/weights/Adam_1"
        string_val: "tower/fully_connected/biases/Adam"
        string_val: "tower/fully_connected/biases/Adam_1"
        string_val: "train_input/input_producer/limit_epochs/epochs"
      }
    }
  }
}
node {
  name: "report_uninitialized_variables/boolean_mask/Shape"
  op: "Const"
  device: "/device:CPU:0"
  attr {
    key: "_output_shapes"
    value {
      list {
        shape {
          dim {
            size: 1
          }
        }
      }
    }
  }
  attr {
    key: "dtype"
    value {
      type: DT_INT32
    }
  }
  attr {
    key: "value"
    value {
      tensor {
        dtype: DT_INT32
        tensor_shape {
          dim {
            size: 1
          }
        }
        int_val: 10
      }
    }
  }
}
node {
  name: "report_uninitialized_variables/boolean_mask/strided_slice/stack"
  op: "Const"
  device: "/device:CPU:0"
  attr {
    key: "_output_shapes"
    value {
      list {
        shape {
          dim {
            size: 1
          }
        }
      }
    }
  }
  attr {
    key: "dtype"
    value {
      type: DT_INT32
    }
  }
  attr {
    key: "value"
    value {
      tensor {
        dtype: DT_INT32
        tensor_shape {
          dim {
            size: 1
          }
        }
        int_val: 0
      }
    }
  }
}
node {
  name: "report_uninitialized_variables/boolean_mask/strided_slice/stack_1"
  op: "Const"
  device: "/device:CPU:0"
  attr {
    key: "_output_shapes"
    value {
      list {
        shape {
          dim {
            size: 1
          }
        }
      }
    }
  }
  attr {
    key: "dtype"
    value {
      type: DT_INT32
    }
  }
  attr {
    key: "value"
    value {
      tensor {
        dtype: DT_INT32
        tensor_shape {
          dim {
            size: 1
          }
        }
        int_val: 1
      }
    }
  }
}
node {
  name: "report_uninitialized_variables/boolean_mask/strided_slice/stack_2"
  op: "Const"
  device: "/device:CPU:0"
  attr {
    key: "_output_shapes"
    value {
      list {
        shape {
          dim {
            size: 1
          }
        }
      }
    }
  }
  attr {
    key: "dtype"
    value {
      type: DT_INT32
    }
  }
  attr {
    key: "value"
    value {
      tensor {
        dtype: DT_INT32
        tensor_shape {
          dim {
            size: 1
          }
        }
        int_val: 1
      }
    }
  }
}
node {
  name: "report_uninitialized_variables/boolean_mask/strided_slice"
  op: "StridedSlice"
  input: "report_uninitialized_variables/boolean_mask/Shape"
  input: "report_uninitialized_variables/boolean_mask/strided_slice/stack"
  input: "report_uninitialized_variables/boolean_mask/strided_slice/stack_1"
  input: "report_uninitialized_variables/boolean_mask/strided_slice/stack_2"
  device: "/device:CPU:0"
  attr {
    key: "Index"
    value {
      type: DT_INT32
    }
  }
  attr {
    key: "T"
    value {
      type: DT_INT32
    }
  }
  attr {
    key: "_output_shapes"
    value {
      list {
        shape {
          dim {
            size: 1
          }
        }
      }
    }
  }
  attr {
    key: "begin_mask"
    value {
      i: 0
    }
  }
  attr {
    key: "ellipsis_mask"
    value {
      i: 0
    }
  }
  attr {
    key: "end_mask"
    value {
      i: 0
    }
  }
  attr {
    key: "new_axis_mask"
    value {
      i: 0
    }
  }
  attr {
    key: "shrink_axis_mask"
    value {
      i: 0
    }
  }
}
node {
  name: "report_uninitialized_variables/boolean_mask/Prod/reduction_indices"
  op: "Const"
  device: "/device:CPU:0"
  attr {
    key: "_output_shapes"
    value {
      list {
        shape {
          dim {
            size: 1
          }
        }
      }
    }
  }
  attr {
    key: "dtype"
    value {
      type: DT_INT32
    }
  }
  attr {
    key: "value"
    value {
      tensor {
        dtype: DT_INT32
        tensor_shape {
          dim {
            size: 1
          }
        }
        int_val: 0
      }
    }
  }
}
node {
  name: "report_uninitialized_variables/boolean_mask/Prod"
  op: "Prod"
  input: "report_uninitialized_variables/boolean_mask/strided_slice"
  input: "report_uninitialized_variables/boolean_mask/Prod/reduction_indices"
  device: "/device:CPU:0"
  attr {
    key: "T"
    value {
      type: DT_INT32
    }
  }
  attr {
    key: "Tidx"
    value {
      type: DT_INT32
    }
  }
  attr {
    key: "_output_shapes"
    value {
      list {
        shape {
        }
      }
    }
  }
  attr {
    key: "keep_dims"
    value {
      b: false
    }
  }
}
node {
  name: "report_uninitialized_variables/boolean_mask/Shape_1"
  op: "Const"
  device: "/device:CPU:0"
  attr {
    key: "_output_shapes"
    value {
      list {
        shape {
          dim {
            size: 1
          }
        }
      }
    }
  }
  attr {
    key: "dtype"
    value {
      type: DT_INT32
    }
  }
  attr {
    key: "value"
    value {
      tensor {
        dtype: DT_INT32
        tensor_shape {
          dim {
            size: 1
          }
        }
        int_val: 10
      }
    }
  }
}
node {
  name: "report_uninitialized_variables/boolean_mask/strided_slice_1/stack"
  op: "Const"
  device: "/device:CPU:0"
  attr {
    key: "_output_shapes"
    value {
      list {
        shape {
          dim {
            size: 1
          }
        }
      }
    }
  }
  attr {
    key: "dtype"
    value {
      type: DT_INT32
    }
  }
  attr {
    key: "value"
    value {
      tensor {
        dtype: DT_INT32
        tensor_shape {
          dim {
            size: 1
          }
        }
        int_val: 0
      }
    }
  }
}
node {
  name: "report_uninitialized_variables/boolean_mask/strided_slice_1/stack_1"
  op: "Const"
  device: "/device:CPU:0"
  attr {
    key: "_output_shapes"
    value {
      list {
        shape {
          dim {
            size: 1
          }
        }
      }
    }
  }
  attr {
    key: "dtype"
    value {
      type: DT_INT32
    }
  }
  attr {
    key: "value"
    value {
      tensor {
        dtype: DT_INT32
        tensor_shape {
          dim {
            size: 1
          }
        }
        int_val: 0
      }
    }
  }
}
node {
  name: "report_uninitialized_variables/boolean_mask/strided_slice_1/stack_2"
  op: "Const"
  device: "/device:CPU:0"
  attr {
    key: "_output_shapes"
    value {
      list {
        shape {
          dim {
            size: 1
          }
        }
      }
    }
  }
  attr {
    key: "dtype"
    value {
      type: DT_INT32
    }
  }
  attr {
    key: "value"
    value {
      tensor {
        dtype: DT_INT32
        tensor_shape {
          dim {
            size: 1
          }
        }
        int_val: 1
      }
    }
  }
}
node {
  name: "report_uninitialized_variables/boolean_mask/strided_slice_1"
  op: "StridedSlice"
  input: "report_uninitialized_variables/boolean_mask/Shape_1"
  input: "report_uninitialized_variables/boolean_mask/strided_slice_1/stack"
  input: "report_uninitialized_variables/boolean_mask/strided_slice_1/stack_1"
  input: "report_uninitialized_variables/boolean_mask/strided_slice_1/stack_2"
  device: "/device:CPU:0"
  attr {
    key: "Index"
    value {
      type: DT_INT32
    }
  }
  attr {
    key: "T"
    value {
      type: DT_INT32
    }
  }
  attr {
    key: "_output_shapes"
    value {
      list {
        shape {
          dim {
          }
        }
      }
    }
  }
  attr {
    key: "begin_mask"
    value {
      i: 1
    }
  }
  attr {
    key: "ellipsis_mask"
    value {
      i: 0
    }
  }
  attr {
    key: "end_mask"
    value {
      i: 0
    }
  }
  attr {
    key: "new_axis_mask"
    value {
      i: 0
    }
  }
  attr {
    key: "shrink_axis_mask"
    value {
      i: 0
    }
  }
}
node {
  name: "report_uninitialized_variables/boolean_mask/Shape_2"
  op: "Const"
  device: "/device:CPU:0"
  attr {
    key: "_output_shapes"
    value {
      list {
        shape {
          dim {
            size: 1
          }
        }
      }
    }
  }
  attr {
    key: "dtype"
    value {
      type: DT_INT32
    }
  }
  attr {
    key: "value"
    value {
      tensor {
        dtype: DT_INT32
        tensor_shape {
          dim {
            size: 1
          }
        }
        int_val: 10
      }
    }
  }
}
node {
  name: "report_uninitialized_variables/boolean_mask/strided_slice_2/stack"
  op: "Const"
  device: "/device:CPU:0"
  attr {
    key: "_output_shapes"
    value {
      list {
        shape {
          dim {
            size: 1
          }
        }
      }
    }
  }
  attr {
    key: "dtype"
    value {
      type: DT_INT32
    }
  }
  attr {
    key: "value"
    value {
      tensor {
        dtype: DT_INT32
        tensor_shape {
          dim {
            size: 1
          }
        }
        int_val: 1
      }
    }
  }
}
node {
  name: "report_uninitialized_variables/boolean_mask/strided_slice_2/stack_1"
  op: "Const"
  device: "/device:CPU:0"
  attr {
    key: "_output_shapes"
    value {
      list {
        shape {
          dim {
            size: 1
          }
        }
      }
    }
  }
  attr {
    key: "dtype"
    value {
      type: DT_INT32
    }
  }
  attr {
    key: "value"
    value {
      tensor {
        dtype: DT_INT32
        tensor_shape {
          dim {
            size: 1
          }
        }
        int_val: 0
      }
    }
  }
}
node {
  name: "report_uninitialized_variables/boolean_mask/strided_slice_2/stack_2"
  op: "Const"
  device: "/device:CPU:0"
  attr {
    key: "_output_shapes"
    value {
      list {
        shape {
          dim {
            size: 1
          }
        }
      }
    }
  }
  attr {
    key: "dtype"
    value {
      type: DT_INT32
    }
  }
  attr {
    key: "value"
    value {
      tensor {
        dtype: DT_INT32
        tensor_shape {
          dim {
            size: 1
          }
        }
        int_val: 1
      }
    }
  }
}
node {
  name: "report_uninitialized_variables/boolean_mask/strided_slice_2"
  op: "StridedSlice"
  input: "report_uninitialized_variables/boolean_mask/Shape_2"
  input: "report_uninitialized_variables/boolean_mask/strided_slice_2/stack"
  input: "report_uninitialized_variables/boolean_mask/strided_slice_2/stack_1"
  input: "report_uninitialized_variables/boolean_mask/strided_slice_2/stack_2"
  device: "/device:CPU:0"
  attr {
    key: "Index"
    value {
      type: DT_INT32
    }
  }
  attr {
    key: "T"
    value {
      type: DT_INT32
    }
  }
  attr {
    key: "_output_shapes"
    value {
      list {
        shape {
          dim {
          }
        }
      }
    }
  }
  attr {
    key: "begin_mask"
    value {
      i: 0
    }
  }
  attr {
    key: "ellipsis_mask"
    value {
      i: 0
    }
  }
  attr {
    key: "end_mask"
    value {
      i: 1
    }
  }
  attr {
    key: "new_axis_mask"
    value {
      i: 0
    }
  }
  attr {
    key: "shrink_axis_mask"
    value {
      i: 0
    }
  }
}
node {
  name: "report_uninitialized_variables/boolean_mask/concat/values_1"
  op: "Pack"
  input: "report_uninitialized_variables/boolean_mask/Prod"
  device: "/device:CPU:0"
  attr {
    key: "N"
    value {
      i: 1
    }
  }
  attr {
    key: "T"
    value {
      type: DT_INT32
    }
  }
  attr {
    key: "_output_shapes"
    value {
      list {
        shape {
          dim {
            size: 1
          }
        }
      }
    }
  }
  attr {
    key: "axis"
    value {
      i: 0
    }
  }
}
node {
  name: "report_uninitialized_variables/boolean_mask/concat/axis"
  op: "Const"
  device: "/device:CPU:0"
  attr {
    key: "_output_shapes"
    value {
      list {
        shape {
        }
      }
    }
  }
  attr {
    key: "dtype"
    value {
      type: DT_INT32
    }
  }
  attr {
    key: "value"
    value {
      tensor {
        dtype: DT_INT32
        tensor_shape {
        }
        int_val: 0
      }
    }
  }
}
node {
  name: "report_uninitialized_variables/boolean_mask/concat"
  op: "ConcatV2"
  input: "report_uninitialized_variables/boolean_mask/strided_slice_1"
  input: "report_uninitialized_variables/boolean_mask/concat/values_1"
  input: "report_uninitialized_variables/boolean_mask/strided_slice_2"
  input: "report_uninitialized_variables/boolean_mask/concat/axis"
  device: "/device:CPU:0"
  attr {
    key: "N"
    value {
      i: 3
    }
  }
  attr {
    key: "T"
    value {
      type: DT_INT32
    }
  }
  attr {
    key: "Tidx"
    value {
      type: DT_INT32
    }
  }
  attr {
    key: "_output_shapes"
    value {
      list {
        shape {
          dim {
            size: 1
          }
        }
      }
    }
  }
}
node {
  name: "report_uninitialized_variables/boolean_mask/Reshape"
  op: "Reshape"
  input: "report_uninitialized_variables/Const"
  input: "report_uninitialized_variables/boolean_mask/concat"
  device: "/device:CPU:0"
  attr {
    key: "T"
    value {
      type: DT_STRING
    }
  }
  attr {
    key: "Tshape"
    value {
      type: DT_INT32
    }
  }
  attr {
    key: "_output_shapes"
    value {
      list {
        shape {
          dim {
            size: 10
          }
        }
      }
    }
  }
}
node {
  name: "report_uninitialized_variables/boolean_mask/Reshape_1/shape"
  op: "Const"
  device: "/device:CPU:0"
  attr {
    key: "_output_shapes"
    value {
      list {
        shape {
          dim {
            size: 1
          }
        }
      }
    }
  }
  attr {
    key: "dtype"
    value {
      type: DT_INT32
    }
  }
  attr {
    key: "value"
    value {
      tensor {
        dtype: DT_INT32
        tensor_shape {
          dim {
            size: 1
          }
        }
        int_val: -1
      }
    }
  }
}
node {
  name: "report_uninitialized_variables/boolean_mask/Reshape_1"
  op: "Reshape"
  input: "report_uninitialized_variables/LogicalNot"
  input: "report_uninitialized_variables/boolean_mask/Reshape_1/shape"
  device: "/device:CPU:0"
  attr {
    key: "T"
    value {
      type: DT_BOOL
    }
  }
  attr {
    key: "Tshape"
    value {
      type: DT_INT32
    }
  }
  attr {
    key: "_output_shapes"
    value {
      list {
        shape {
          dim {
            size: 10
          }
        }
      }
    }
  }
}
node {
  name: "report_uninitialized_variables/boolean_mask/Where"
  op: "Where"
  input: "report_uninitialized_variables/boolean_mask/Reshape_1"
  device: "/device:CPU:0"
  attr {
    key: "T"
    value {
      type: DT_BOOL
    }
  }
  attr {
    key: "_output_shapes"
    value {
      list {
        shape {
          dim {
            size: -1
          }
          dim {
            size: 1
          }
        }
      }
    }
  }
}
node {
  name: "report_uninitialized_variables/boolean_mask/Squeeze"
  op: "Squeeze"
  input: "report_uninitialized_variables/boolean_mask/Where"
  device: "/device:CPU:0"
  attr {
    key: "T"
    value {
      type: DT_INT64
    }
  }
  attr {
    key: "_output_shapes"
    value {
      list {
        shape {
          dim {
            size: -1
          }
        }
      }
    }
  }
  attr {
    key: "squeeze_dims"
    value {
      list {
        i: 1
      }
    }
  }
}
node {
  name: "report_uninitialized_variables/boolean_mask/GatherV2/axis"
  op: "Const"
  device: "/device:CPU:0"
  attr {
    key: "_output_shapes"
    value {
      list {
        shape {
        }
      }
    }
  }
  attr {
    key: "dtype"
    value {
      type: DT_INT32
    }
  }
  attr {
    key: "value"
    value {
      tensor {
        dtype: DT_INT32
        tensor_shape {
        }
        int_val: 0
      }
    }
  }
}
node {
  name: "report_uninitialized_variables/boolean_mask/GatherV2"
  op: "GatherV2"
  input: "report_uninitialized_variables/boolean_mask/Reshape"
  input: "report_uninitialized_variables/boolean_mask/Squeeze"
  input: "report_uninitialized_variables/boolean_mask/GatherV2/axis"
  device: "/device:CPU:0"
  attr {
    key: "Taxis"
    value {
      type: DT_INT32
    }
  }
  attr {
    key: "Tindices"
    value {
      type: DT_INT64
    }
  }
  attr {
    key: "Tparams"
    value {
      type: DT_STRING
    }
  }
  attr {
    key: "_output_shapes"
    value {
      list {
        shape {
          dim {
            size: -1
          }
        }
      }
    }
  }
  attr {
    key: "batch_dims"
    value {
      i: 0
    }
  }
}
node {
  name: "init_1"
  op: "NoOp"
  input: "^train_input/input_producer/limit_epochs/epochs/Assign"
}
node {
  name: "init_all_tables"
  op: "NoOp"
}
node {
  name: "group_deps"
  op: "NoOp"
  input: "^init_1"
  input: "^init_all_tables"
}
node {
  name: "Merge/MergeSummary"
  op: "MergeSummary"
  input: "learning_rate"
  input: "train_input/input_producer/fraction_of_32_full"
  input: "train_input/shuffle_batch_join/fraction_over_1024_of_4096_full"
  input: "model/input_raw"
  input: "tower/tower/fully_connected/weights"
  input: "tower/tower/fully_connected/biases"
  input: "label_loss"
  input: "reg_loss"
  attr {
    key: "N"
    value {
      i: 8
    }
  }
  attr {
    key: "_output_shapes"
    value {
      list {
        shape {
        }
      }
    }
  }
}
versions {
  producer: 38
}
